results/checkpoints/dynamic_gnn_federated.pt (torch, 518973 bytes, 18 tensors)

node_embed.weight f4 [64, 46]
0	0x3dd34101	0.10315133
1	0xbde50b32	-0.11183776
2	0x3c0e361c	0.008679893
3	0xbcb25a96	-0.02177171
4	0xbdea4c14	-0.11440292
5	0x3db07425	0.08615903
6	0x3d6d7afc	0.057978615
7	0x3e27bef1	0.16381432
8	0xbde06de9	-0.10958464
9	0xbcf582b7	-0.029969556
10	0x3e1ed821	0.15512134
11	0x3d9cd96d	0.07658658
12	0xbd49f05d	-0.049301494
13	0x3d7d4631	0.061834518
14	0x3e2e8dc8	0.17046273
15	0x3c1497d5	0.009069403
16	0xbc1e6e9e	-0.009669928
17	0x3da29a24	0.07939556
18	0xbd730de5	-0.059339423
19	0xbe2fddf4	-0.17174512
20	0xbca9ed12	-0.020742927
21	0x3d1bba36	0.03801938
22	0x3caa0118	0.020752475
23	0xbd643760	-0.055716872
24	0x3dd1ebf7	0.10250085
25	0x3d5217e8	0.05129233
26	0xbe1206c3	-0.14260392
27	0xbd44afce	-0.048019223
28	0x3ddb162f	0.106975906
29	0x3dcb28e4	0.09919909
30	0x3e282c08	0.16423047
31	0x3dccc403	0.09998324
32	0xbcc4c79c	-0.024020962
33	0x3b8536ce	0.004065371
34	0x3d9d046a	0.076668575
35	0x3e1a560e	0.1507189
36	0x3e2468bf	0.16055582
37	0xbe068264	-0.13135678
38	0xbcda0018	-0.026611373
39	0xbccf1096	-0.025276463
40	0x3db01b2c	0.085989326
41	0xbb5a88c2	-0.0033345674
42	0xbc9405a7	-0.018069101
43	0xbe004ca1	-0.12529232
44	0x3dbab587	0.09116655
45	0xbd16d29f	-0.036821958
46	0x3c733a3d	0.014845428
47	0xbd81e1f7	-0.063419275
48	0x3d20d474	0.03926511
49	0xbd3c217e	-0.04593038
50	0x3e09a14d	0.13440438
51	0xbc363dee	-0.011123164
52	0xbc2a41d6	-0.010391673
53	0x3e14a719	0.14516868
54	0x3e1f39b4	0.15549356
55	0xbc9a3668	-0.018824771
56	0xbc93768e	-0.018000867
57	0xbe076cfc	-0.13225168
58	0x3e05ed04	0.13078696
59	0xbd3caa26	-0.046060704
60	0x3de24618	0.110485256
61	0x3e0ae3cb	0.13563459
62	0x3df14cda	0.117822364
63	0xbd861c83	-0.06548407
64	0x3d864634	0.06556359
65	0x3d819875	0.06327907
66	0x3d3f4064	0.046692267
67	0xbda39c2d	-0.079887725
68	0xbdbab7ad	-0.091170646
69	0x3dd29370	0.10282028
70	0xbdaf0423	-0.08545711
71	0x3cc2fb08	0.023801342
72	0x3e261d1e	0.16222045
73	0xbdecc0a0	-0.11560178
74	0x3ce6a65f	0.028155504
75	0x3e28d3fa	0.16487113
76	0x3dc3ee73	0.09566965
77	0x3d161a15	0.036645968
78	0xbe3bfc39	-0.18357934
79	0xbd9ac0a8	-0.075562775
80	0x3cf01a5a	0.02930944
81	0xbb74a6dd	-0.0037330904
82	0x3da23be2	0.07921578
83	0x3aa8eaad	0.0012887322
84	0xbc67cd7a	-0.0141481105
85	0xbd3e0d83	-0.046399605
86	0xbbaf05ff	-0.005341291
87	0xbd56574f	-0.052329358
88	0xbe10b5c8	-0.14131844
89	0xbda8ec34	-0.08248177
90	0xbd3e82fe	-0.046511643
91	0x3de5b2e6	0.11215763
92	0x3cf06fca	0.02935018
93	0x3db10504	0.08643535
94	0xbdf19315	-0.11795632
95	0xbda55950	-0.08073676
96	0xbd811f9f	-0.06304859
97	0xbdbb7ae7	-0.09154301
98	0xbddd88f0	-0.108171344
99	0x3ddd4c8c	0.10805616
100	0xbdbc14ee	-0.091836795
101	0x3e2121b1	0.15735509
102	0x3e07f43f	0.13276766
103	0xbdfb1e35	-0.12261621
104	0xbdfef1ca	-0.12448461
105	0x3d8aa2bc	0.0676932
106	0x3e294aa1	0.16532375
107	0xbc2452bf	-0.010029494
108	0xbaddb726	-0.0016915544
109	0x3d4468f0	0.04795164
110	0x3c98ef06	0.018668663
111	0x3d9c9e5a	0.07647391
112	0xbdae5b9d	-0.085135676
113	0xbbc580f9	-0.0060273376
114	0xbcad9dd0	-0.021193415
115	0xbdb3876c	-0.08766064
116	0x3d749d9a	0.059720613
117	0x3dd3ee0c	0.10348138
118	0x3e1919bd	0.14951225
119	0xbe1d7e4f	-0.15380214
120	0x3e075eb2	0.13219717
121	0xbd0c5b37	-0.034266677
122	0xbcacd100	-0.021095753
123	0x3dc09a6d	0.094044544
124	0x3cc380b2	0.023865078
125	0xbe2273f2	-0.15864542
126	0xbe1aaf41	-0.15105917
127	0x3c9a981b	0.018871358
128	0xbe3767a8	-0.17910635
129	0x3d993cea	0.074823216
130	0x3c900ac5	0.01758326
131	0x3daa8aec	0.083272785
132	0xb91f1302	-0.00015170503
133	0xbc6b6c06	-0.0143690165
134	0xbe067ae3	-0.13132815
135	0xbc9ca3b9	-0.019121038
136	0xbe32ec70	-0.17473006
137	0xbce22ac1	-0.027608277
138	0x3d436337	0.04770204
139	0x3e115da0	0.14195871
140	0x3c4bd6e5	0.012441372
141	0xbd93d3d9	-0.07218141
142	0x3dffa6da	0.12482996
143	0xbdc7cf6e	-0.09756361
144	0xbd5481f9	-0.051881764
145	0xbe602597	-0.2188934
146	0xbdb1680d	-0.08662424
147	0xbe57e4e2	-0.21083406
148	0xbd59f1f7	-0.05320927
149	0x3d4606be	0.048346274
150	0x3df46c77	0.119347505
151	0xbd3c3ade	-0.045954578
152	0xbd98fc20	-0.07469964
153	0xbd56d11a	-0.05244551
154	0x3ced2333	0.028947448
155	0xbcdc1b30	-0.026868433
156	0x3d4bfcba	0.049801566
157	0xbe2d9849	-0.16952623
158	0xbdd37d6d	-0.103266574
159	0x3d8a09dc	0.06740162
160	0x3d445a04	0.047937408
161	0xbdc67798	-0.096907794
162	0x3dc5f534	0.096659094
163	0x3d9a90d8	0.07547158
164	0x3c3a8bed	0.0113859
165	0xbdf3e096	-0.11908071
166	0xbd6e3bee	-0.058162622
167	0xbd58accb	-0.052899163
168	0xbd66f4da	-0.056385852
169	0x3dad3744	0.08457807
170	0xbe0253ee	-0.12727329
171	0x3e173b82	0.14768794
172	0xbdc82e8c	-0.09774503
173	0x3e12d2dd	0.1433825
174	0x3de44762	0.11146428
175	0x3d807f1c	0.06274244
176	0x3d93cc80	0.0721674
177	0x3d233bfb	0.039852124
178	0xbdd9f268	-0.106419384
179	0x3e39a5ef	0.18129705
180	0x3d851cf9	0.06499667
181	0x3c2a7b83	0.010405424
182	0x3cccf8ba	0.025020946
183	0xbc6f2e6a	-0.014598468
184	0xbceb0c04	-0.028692253
185	0x3d86c74f	0.06580984
186	0xbb988dd7	-0.0046555805
187	0xbd8a7bcc	-0.06761894
188	0x3da0d7df	0.07853674
189	0x3c1d7d44	0.009612385
190	0x3df3643c	0.118843526
191	0xbdd52693	-0.10407748
192	0x3c4e9eb6	0.012611082
193	0x3d37b5ec	0.04485123
194	0xbc3984ac	-0.011323135
195	0xbe24154c	-0.16023749
196	0x3c295850	0.010335997
197	0xbdd9e2f6	-0.106389925
198	0xbe25ceb0	-0.16192126
199	0xbd92811d	-0.07153533
200	0xbd905c35	-0.07048837
201	0xbd96e82d	-0.07368503
202	0x3dcabf29	0.09899742
203	0xbdb3c7a1	-0.087783106
204	0xbd91dc25	-0.07122067
205	0xbd20915d	-0.03920113
206	0x3dc63d14	0.096796185
207	0x3e16ca07	0.14725505
208	0xbd862a23	-0.06551006
209	0x3dc7444c	0.097298235
210	0xbe123a69	-0.14280094
211	0x3d204a35	0.03913327
212	0x3dd8c7a8	0.105849564
213	0xbd0b9926	-0.0340816
214	0xbd8f340e	-0.069923505
215	0x3d73762c	0.05943887
216	0x3e05a2b4	0.13050348
217	0x3b5ffa9d	0.0034176477
218	0x3cdefd52	0.027220402
219	0xbe146b53	-0.14494066
220	0x3d15710b	0.03648476
221	0x3dbd0819	0.0923006
222	0xbe416324	-0.18885475
223	0xbd07204a	-0.032989778
224	0xbd946fc0	-0.07247877
225	0xbd964716	-0.07337777
226	0x3dd80031	0.105469115
227	0xbda76ead	-0.081754066
228	0x3d05bcc1	0.032650713
229	0x3de4ccf1	0.11171902
230	0x3e030e92	0.12798527
231	0x3cfc0e29	0.03076847
232	0xbc7c63f7	-0.015404693
233	0x3d1450ca	0.03620986
234	0xbe1872e3	-0.14887576
235	0xbe132f0f	-0.1437342
236	0x3de344d1	0.1109711
237	0x3db423dc	0.08795902
238	0xbda35257	-0.079746895
239	0xbe370c3f	-0.17875765
240	0x3d06a5cd	0.032872964
241	0xbd12ca13	-0.035837244
242	0xbbea837e	-0.0071567884
243	0xbc1aeab0	-0.009455368
244	0xbe1cc07d	-0.15307803
245	0xbd0c7960	-0.03429544
246	0xbe26ed89	-0.1630155
247	0x3c1ea0f9	0.009681934
248	0x3dd27c3b	0.10277601
249	0xbe27446b	-0.16334693
250	0xbc8dd3d3	-0.01731292
251	0xbd403a00	-0.046930313
252	0xbd8fc53c	-0.07020041
253	0x3e013e7c	0.12621492
254	0xbda94cbf	-0.08266591
255	0xbaaafb7f	-0.0013044922

node_embed.bias f4 [64]
0	0x3dca74eb	0.098855816
1	0x3d8a37ae	0.06748901
2	0x3c44a433	0.012002039
3	0xbe033ba9	-0.12815727
4	0x3d75fe1c	0.06005679
5	0x3d75a696	0.05997332
6	0xbdb7dd82	-0.08977796
7	0xbd1f9710	-0.038962424
8	0xbd456441	-0.048191313
9	0xbcb9d6ba	-0.022685397
10	0x3dd5228e	0.104069814
11	0x3df6ce86	0.1205111
12	0x3d86ac97	0.06575888
13	0x3d8fc813	0.07020583
14	0x3dd70062	0.1049812
15	0x3e2d0f24	0.16900307
16	0x3d959e20	0.073055506
17	0x3de9ce74	0.11416331
18	0x3deacbd6	0.1146466
19	0x3e01717d	0.12640949
20	0x3d9f2efd	0.07772634
21	0x3deec255	0.1165816
22	0x3d14dfcf	0.036346253
23	0xbda6942c	-0.0813373
24	0x3de0dd65	0.10979728
25	0x3df8585a	0.12126227
26	0x3d0cdeb7	0.034392085
27	0x3e1bbb68	0.15208209
28	0xbcb37f28	-0.021911219
29	0x3db9dd6c	0.09075436
30	0xbe0b4136	-0.13599095
31	0x3d11d7d5	0.035606224
32	0x3e2681bc	0.16260427
33	0x3d2f442c	0.042789623
34	0x3dd6fe51	0.10497726
35	0x3d5fc153	0.054627728
36	0xbd2a4a07	-0.041574504
37	0xbd0d1eea	-0.03445331
38	0xbca893a2	-0.02057821
39	0xbc9f27bf	-0.019428132
40	0xbe2ae3cc	-0.1668846
41	0xbb061627	-0.0020459981
42	0x3d83acae	0.064294204
43	0x3e1bcc92	0.15214756
44	0x3e1160e6	0.1419712
45	0xbdd5d5b5	-0.10441152
46	0x3c094930	0.008379266
47	0x3df2817d	0.11841104
48	0x3d95f4ef	0.07322108
49	0x3e09f9ff	0.13474272
50	0x3c95c609	0.018282907
51	0xbd4ec81d	-0.05048381
52	0xbe4d0a41	-0.20023443
53	0xbdd8d826	-0.10588102
54	0xbdd3f7d4	-0.10350004
55	0xbd4ba0b9	-0.049713824
56	0xbe04cb9e	-0.12968299
57	0xbd84376f	-0.064558856
58	0xbc8c53af	-0.017129747
59	0xbd955154	-0.07290903
60	0x3d20b99d	0.039239515
61	0x3c3db8b7	0.011579684
62	0xbdf40346	-0.11914687
63	0xbd9b6359	-0.075873084

gat_layers.0.att_src f4 [1, 4, 64]
0	0x3e531bd6	0.20616087
1	0x3a9a911f	0.0011792517
2	0x3b8121c3	0.0039407923
3	0xbde6efe9	-0.11276228
4	0xbd6fe755	-0.058570225
5	0x3d94a62d	0.07258258
6	0xbe3417c8	-0.17587197
7	0xbe1ee83d	-0.1551828
8	0xbe51aac9	-0.20475306
9	0x3e88a8a0	0.2669115
10	0x3e13586c	0.14389199
11	0x3e7ab437	0.24482809
12	0x3e75534c	0.23957556
13	0x3df14c59	0.1178214
14	0xbe4b31c6	-0.19843206
15	0x3d1ffecc	0.039061353
16	0xbd1f0318	-0.03882131
17	0x3e19e191	0.15027453
18	0x3e5d922d	0.21637793
19	0x3d83abc0	0.06429243
20	0x3dae7148	0.085177004
21	0xbc88c829	-0.016697006
22	0x3cdf148b	0.027231475
23	0xbe1cef22	-0.15325597
24	0x3e556a5b	0.20841353
25	0xbe667483	-0.22505383
26	0x3e2f1587	0.17098056
27	0x3c64e597	0.013970754
28	0x3e38f114	0.18060714
29	0xbe336444	-0.17518717
30	0x3e6ac41a	0.2292637
31	0xbdbeed23	-0.09322574
32	0xbe46d701	-0.19417955
33	0x3e5fe1e9	0.21863522
34	0xbbc08448	-0.005875144
35	0xbe9116c1	-0.28337672
36	0x3e1804dd	0.14845605
37	0x3d4a400f	0.049377497
38	0xbe11f330	-0.14252925
39	0xbda4319a	-0.08017273
40	0x3e387be8	0.18016016
41	0xbcbbccae	-0.022924747
42	0x3d6c9db3	0.05776758
43	0x3cb8d1f9	0.02256106
44	0xbe3f26e5	-0.18667181
45	0xbde9d04c	-0.114166826
46	0x3e547076	0.20746025
47	0x3e33e3b3	0.17567329
48	0xbddfc556	-0.10926311
49	0xbe8b073e	-0.27153963
50	0xbe628359	-0.22120418
51	0x3dc28adf	0.09499144
52	0xbdb15ec2	-0.08660652
53	0x3cef35f3	0.02920053
54	0xbd5fc1b4	-0.05462809
55	0x3e623362	0.22089913
56	0xbe076da7	-0.13225423
57	0x3e8858fd	0.26630393
58	0x3e9ae9e4	0.3025657
59	0x3d28eda4	0.041242257
60	0x3e8f7679	0.28020075
61	0x3ea20411	0.31643727
62	0xbd40a3dc	-0.04703127
63	0xbe7ffd43	-0.24998955
64	0x3c41ec16	0.011836072
65	0xbd99d806	-0.07511906
66	0xbe676164	-0.22595745
67	0x3e52171a	0.20516625
68	0xbe7085e1	-0.23488571
69	0xbe660380	-0.22462273
70	0xbe8013a4	-0.25014985
71	0x3e596549	0.21230043
72	0x3df16974	0.11787692
73	0x3e73f5b7	0.23824202
74	0x3df3f37d	0.11911676
75	0x3bedf0fd	0.007261394
76	0xbe51f845	-0.20504864
77	0x3dc4f662	0.09617306
78	0x3e9c0c51	0.30478147
79	0x3db9e85d	0.09077523
80	0xbe2dfd4c	-0.16991156
81	0xbc736db0	-0.0148576945
82	0xbda95a2c	-0.08269152
83	0xbd9ca7dc	-0.07649204
84	0x3e9398d7	0.28827545
85	0x3e6404a5	0.22267397
86	0x3e2b5304	0.16730887
87	0x3ca86ed5	0.020560661
88	0x3e8a9cbf	0.27072713
89	0x3e5dc3c3	0.21656708
90	0xbe9836e2	-0.29729372
91	0xbe069128	-0.1314131
92	0x3c92d8a1	0.017925562
93	0xbe5b284a	-0.21402088
94	0x3dfc95c3	0.12333252
95	0x3dc26441	0.09491778
96	0xbd80406f	-0.0626229
97	0x3e5ab3bc	0.21357626
98	0x3e6fe425	0.23426874
99	0xbe2c7b4f	-0.16843913
100	0xbbf87a23	-0.007582919
101	0xbe8a4894	-0.27008498
102	0xbe4dbd36	-0.2009171
103	0xbe332d6b	-0.17497794
104	0x3da01d52	0.078180924
105	0x3e71d2da	0.2361559
106	0x3d4eda6e	0.05050128
107	0xbe960835	-0.29303136
108	0x3da73400	0.08164215
109	0x3db96ad9	0.09053583
110	0xbd2a4e35	-0.04157849
111	0xbe8e701c	-0.27819908
112	0x3e6e7be4	0.23289448
113	0xbe04229f	-0.12903832
114	0xbd966462	-0.07343365
115	0x3ccf9377	0.025338871
116	0x3dc4ebb0	0.09615266
117	0x3e6f5f7a	0.23376265
118	0xbe7dfe7f	-0.24804114
119	0x3dbad7f4	0.09123221
120	0xbe0eb4c2	-0.13936141
121	0xbdd0153e	-0.101603016
122	0xbe09c823	-0.13455252
123	0x3dd3e142	0.10345699
124	0x3dec2daa	0.11532147
125	0x3e82fa38	0.25581527
126	0xbdc54303	-0.09631922
127	0x3e2a9c1e	0.16661116
128	0x3e8abb5d	0.27096072
129	0xbe1801f2	-0.14844492
130	0xbe6828c2	-0.22671798
131	0x3dff835a	0.12476225
132	0x3cac723d	0.021050567
133	0x3c0167c2	0.007898273
134	0x3d4774da	0.048695423
135	0xbd8f34eb	-0.06992515
136	0xbb2ff1d8	-0.002684703
137	0xbe1a9a7d	-0.15097995
138	0xbe7063ca	-0.23475567
139	0xbe84c49d	-0.25931254
140	0x3e27afc5	0.16375645
141	0xbe905115	-0.2818686
142	0x3e84ed47	0.25962278
143	0x3d8c0ffd	0.06838987
144	0x3dfeae12	0.12435545
145	0x3d95e3b5	0.07318822
146	0xbe2cac26	-0.16862544
147	0xbe6bd488	-0.23030293
148	0xbe7078fc	-0.23483652
149	0x3dcec3b0	0.10095918
150	0xbcba315b	-0.022728613
151	0x3e745fae	0.23864624
152	0xbe3651ae	-0.17804596
153	0xbe9e5e6b	-0.3093141
154	0x3e2dad80	0.16960716
155	0xbe3014bd	-0.17195411
156	0x3cde3dc9	0.02712907
157	0x3de8104d	0.11331234
158	0xbde5135d	-0.11185334
159	0xbdb9c968	-0.09071618
160	0x3d5260b4	0.051361755
161	0xbe1de557	-0.15419517
162	0xbe8a8fed	-0.27062932
163	0xbd6b425c	-0.057436332
164	0x3e88dd85	0.26731506
165	0x3b46fdbc	0.003036364
166	0x3d9f8aef	0.07790171
167	0xbd0e3ebe	-0.034727804
168	0x3e3d9f39	0.1851777
169	0xbcd96922	-0.026539389
170	0x3e2cf902	0.16891864
171	0xbdf6d107	-0.120515876
172	0xbe4ee6e7	-0.2020527
173	0xbe5f06ca	-0.21779934
174	0xbe644c89	-0.22294821
175	0x3d9daa0d	0.0769845
176	0x3e984f86	0.29748172
177	0xbd10adcf	-0.035322007
178	0xbd23321c	-0.03984271
179	0xbbc956dc	-0.0061443876
180	0xbdd602df	-0.10449766
181	0x3e76de8b	0.24108331
182	0x3dc30082	0.09521581
183	0xbd8860c5	-0.06659082
184	0x3e53acca	0.20671383
185	0x3d053495	0.03252085
186	0x3e9a28ff	0.30109403
187	0x3e92fe24	0.2870952
188	0xbe101ef5	-0.14074309
189	0xbdcd4320	-0.10022569
190	0xbe6f7af6	-0.2338675
191	0xbd353ed3	-0.044249367
192	0xbe1fb5b5	-0.1559666
193	0x3e2d44fa	0.16920844
194	0x3c86f516	0.016474288
195	0xbde4582c	-0.1114963
196	0x3dd3938b	0.10330876
197	0xbe53244a	-0.20619312
198	0xbcd23904	-0.025661953
199	0xbe8fd83e	-0.28094667
200	0x3e00ec53	0.1259015
201	0xbdfdc666	-0.12391357
202	0x3e5b81cb	0.21436231
203	0x3c4b10e1	0.012394161
204	0xbd100856	-0.0351642
205	0xbe683a66	-0.22678527
206	0x3e61790d	0.22018833
207	0x3e147e74	0.14501363
208	0x3e0bf581	0.13667871
209	0x3e833c98	0.25632167
210	0x3e56c040	0.20971775
211	0xbe66416c	-0.22485894
212	0xbe15131a	-0.14558068
213	0xbe4b7063	-0.19867091
214	0x3e9cc906	0.3062212
215	0x3e396470	0.1810472
216	0x3e8f6a35	0.28010717
217	0xbc5c66e6	-0.013452267
218	0x3dd5c5dc	0.10438129
219	0x3e42cd05	0.19023521
220	0xbe8119c8	-0.25214982
221	0xbd193992	-0.03740842
222	0x3e59213b	0.21204083
223	0x3cf3e638	0.029772863
224	0x3e6eeee5	0.23333319
225	0xbe15360e	-0.14571401
226	0x3e69bce6	0.22825965
227	0xbdede8e2	-0.116166845
228	0x3d44458a	0.04791788
229	0x3cef48ba	0.029209483
230	0xbe9f0446	-0.31057948
231	0x3e788305	0.2426873
232	0x3d8cf916	0.06883447
233	0x3d32fa21	0.043695573
234	0xbd4338ed	-0.04766171
235	0xbb1035e6	-0.0022004782
236	0x3d3b7ee8	0.045775324
237	0xbdbba31c	-0.0916197
238	0x3c836fcb	0.016044518
239	0x3dda2c92	0.10653032
240	0x3e56aa47	0.20963393
241	0xbd39f0f9	-0.045395825
242	0x3d1dda34	0.038538173
243	0x3ea4329a	0.32069856
244	0x3c627cb7	0.01382368
245	0x3b0c8794	0.0021443116
246	0xbd7279e6	-0.059198283
247	0xbc0d9236	-0.008640816
248	0x3dd7f54e	0.10544835
249	0x3e55e719	0.20888938
250	0x3d5ea32f	0.054354843
251	0xbe45efde	-0.19329783
252	0xbe9a295c	-0.3010968
253	0x3e207c43	0.15672402
254	0x3c777d51	0.015105561
255	0xbddc792a	-0.10765298

gat_layers.0.att_dst f4 [1, 4, 64]
0	0x3d835359	0.06412382
1	0x3e58cac1	0.21171094
2	0x3e02b372	0.12763765
3	0x3db3a522	0.08771731
4	0x3e3e56d8	0.18587816
5	0x3cb92b38	0.022603616
6	0xbe6d83aa	-0.23194757
7	0xbe7697a9	-0.24081291
8	0x3e97fec4	0.29686558
9	0xbdba0c05	-0.09084324
10	0x3e9f890f	0.31159255
11	0xbdc66f3e	-0.096891865
12	0x3e68445b	0.22682326
13	0xbd9b8f1c	-0.07595655
14	0x3cde527a	0.027138937
15	0xbe5fd6b4	-0.21859246
16	0x3e1d2439	0.15345849
17	0xbdabce55	-0.08388964
18	0xbc98f5bf	-0.018671868
19	0xbe7e7110	-0.24847817
20	0xbe6ab60e	-0.22921011
21	0x3c44e535	0.012017538
22	0xbe8017e1	-0.25018218
23	0x3d6592ba	0.056048132
24	0x3e538fac	0.20660275
25	0xbdb46c0f	-0.08809673
26	0x3dd2da52	0.102955475
27	0xbe8b0a81	-0.2715645
28	0xbd8373b9	-0.06418557
29	0x3e1ec91c	0.15506405
30	0xbd369b8e	-0.044581942
31	0xbe64736b	-0.22309653
32	0xbe5298a6	-0.20566043
33	0x3d92d0de	0.071687445
34	0x3eabb642	0.3353749
35	0xbd97153d	-0.07377098
36	0xbe51cda3	-0.204886
37	0x3c350d89	0.01105059
38	0xbe2f5b82	-0.17124751
39	0x3d892266	0.06696014
40	0xbe2a76c8	-0.16646874
41	0x3c835686	0.016032469
42	0xbe12989d	-0.1431603
43	0x3c8d90ef	0.017281024
44	0xbcd9532b	-0.026528915
45	0xbde25656	-0.110516235
46	0xbda314ad	-0.07962928
47	0x3d8e96b0	0.06962335
48	0xbead11c4	-0.33802617
49	0x3cb38309	0.021913068
50	0xbd14c300	-0.03631878
51	0x3e81209c	0.2522019
52	0xbe29d9ad	-0.16586943
53	0xbe066171	-0.13123108
54	0x3c8ab04b	0.016929766
55	0x3e8c7fe6	0.2744133
56	0xbd3e178e	-0.046409182
57	0x3cfe57c2	0.031047706
58	0xbe5a343b	-0.21308987
59	0xbe08f95c	-0.13376373
60	0xbe322ce0	-0.17399931
61	0x3e3d9123	0.18512397
62	0xbe93eb9c	-0.28890693
63	0xbd68c510	-0.05682856
64	0xbd2d9f6d	-0.04238837
65	0xbe4f80a6	-0.20263919
66	0xbe3377af	-0.17526124
67	0x3e178c50	0.14799619
68	0xbe1bf9a3	-0.15231948
69	0x3e848555	0.25882974
70	0xbe8a7d66	-0.27048796
71	0x3e2db2ff	0.16962813
72	0xbe2e09e0	-0.16995955
73	0x3e8661a9	0.26246384
74	0x3e190208	0.14942181
75	0x3bebd047	0.0071964595
76	0xbe97868a	-0.29594833
77	0xbe4ce46e	-0.20009014
78	0x3e6bc9b4	0.23026162
79	0x3e796167	0.24353562
80	0xbde76976	-0.11299412
81	0x3e0371fb	0.12836449
82	0xbe00fdbd	-0.12596793
83	0xbdb76084	-0.08953956
84	0x3e8c25f6	0.27372712
85	0x3e0fe987	0.14053927
86	0xbe3d1b74	-0.18467504
87	0x3e2d44b4	0.1692074
88	0x3ea0417b	0.31299958
89	0x3e0a8884	0.13528639
90	0x3e688bd0	0.22709584
91	0xbe9507af	-0.29107425
92	0xbdc875e8	-0.09788114
93	0x3e8c6ef3	0.27428398
94	0xbda9f3c0	-0.08298445
95	0xbd93f502	-0.07224466
96	0xbe52e2af	-0.20594285
97	0xbbab359b	-0.005224896
98	0xbe8f1d69	-0.27952126
99	0x3e668542	0.22511771
100	0x3e9162a2	0.28395563
101	0xbe44c7f2	-0.19216898
102	0x3d2cae26	0.04215827
103	0xbeadedba	-0.33970433
104	0xbe165c8c	-0.14683741
105	0xbe39ab07	-0.18131648
106	0xbe0ee44e	-0.13954279
107	0x3e006b69	0.12540974
108	0xbd3b5ca4	-0.045742646
109	0x3e47b98b	0.19504373
110	0x3e185a75	0.14878257
111	0xbdb3c7cc	-0.087783426
112	0xbdf5a8d1	-0.1199509
113	0x3e90befb	0.28270707
114	0x3e45f317	0.19331013
115	0x3e5f0b18	0.21781576
116	0xbc53147c	-0.012883302
117	0x3e24a241	0.1607752
118	0x3e452bf2	0.19255045
119	0x3d21baa2	0.039484628
120	0xbc8b4adb	-0.017003467
121	0x3e7a4489	0.24440207
122	0x3e95f244	0.29286397
123	0xbb14c947	-0.0022702978
124	0xbe04c882	-0.12967113
125	0x3ea156c5	0.31511512
126	0x3e8c9eec	0.27464998
127	0x3dd0aaa1	0.10188795
128	0xbddabfa6	-0.10681085
129	0xbd19b9bc	-0.037530646
130	0x3e8ac5a3	0.2710391
131	0x3db43178	0.08798498
132	0x3cc3012b	0.023804268
133	0x3decf354	0.11569849
134	0xbe431cb8	-0.19053924
135	0x3d9b74af	0.07590615
136	0xbc2b9877	-0.010473362
137	0xbd2b3dd7	-0.041807022
138	0xbe4aad78	-0.19792736
139	0x3dd0dbdc	0.10198185
140	0x3e68a862	0.22720483
141	0xbe3eb794	-0.18624717
142	0x3e98f237	0.29872295
143	0xbdaaa72a	-0.08332665
144	0xbe2b810b	-0.16748445
145	0x3e139cbb	0.14415257
146	0x3e674392	0.2258437
147	0xbe6899a7	-0.22714864
148	0xbe043ef8	-0.12914646
149	0xbe4dfd27	-0.20116101
150	0xbdb967a4	-0.09052971
151	0x3e1f86df	0.15578793
152	0x3e106048	0.14099228
153	0xbdd62096	-0.10455434
154	0xbd5921ca	-0.05301074
155	0xbddb5adc	-0.107106894
156	0xbe88157b	-0.26578888
157	0xbdd62d50	-0.104578614
158	0xbdbc756c	-0.09202084
159	0xbe2922c8	-0.16517174
160	0x3c54c21f	0.012985735
161	0xbe3ed57f	-0.1863613
162	0x3e82fd8c	0.25584066
163	0xbea25070	-0.31701994
164	0xbe76ddff	-0.24108122
165	0xbdc0a3ed	-0.09406266
166	0xbe6cf619	-0.23140754
167	0xbe7b6ddc	-0.24553627
168	0xbdff70b2	-0.12472667
169	0x3e89aea0	0.2689104
170	0x3e573278	0.21015346
171	0xbc763cc1	-0.015029133
172	0xbe43d1b2	-0.19122961
173	0x3e93ba59	0.2885311
174	0x3d2402f0	0.040041864
175	0xbe15be75	-0.14623435
176	0x3e7e8c54	0.24858218
177	0xbe4ee1bd	-0.202033
178	0xbbda582e	-0.006663344
179	0x3c86c83b	0.0164529
180	0x3e9a178e	0.30096096
181	0xbe81472a	-0.25249606
182	0x3e3c73a8	0.18403494
183	0x3c12f27a	0.008968944
184	0xbe38ac48	-0.1803447
185	0x3e367909	0.17819609
186	0x3e3cd6d0	0.1844132
187	0x3e139ca3	0.14415221
188	0xbd95396a	-0.072863415
189	0x3e57a162	0.21057656
190	0xbeb1aeb2	-0.34703594
191	0xbe767cf6	-0.24071106
192	0xbd8adff1	-0.06780995
193	0xbe1b4280	-0.15162086
194	0x3e9247bd	0.28570357
195	0xbd04a8b4	-0.03238745
196	0xbdebd322	-0.1151488
197	0x3e874553	0.26420078
198	0xbe15f3ee	-0.14643833
199	0xbe7166da	-0.23574391
200	0x3e918e79	0.2842901
201	0x3d56b248	0.052416116
202	0xbe814784	-0.25249875
203	0x3c83efa1	0.016105475
204	0xbcde5048	-0.02713789
205	0x3d91441c	0.07093069
206	0x3df8bf54	0.12145868
207	0x3dbfa678	0.09357923
208	0xbe0de4b9	-0.13856782
209	0xbd72d6b1	-0.059286777
210	0xbe10ce59	-0.14141215
211	0x3dd5e496	0.1044399
212	0x3e66bc07	0.22532664
213	0x3d5c8edf	0.05384719
214	0xbe5b4f1e	-0.214169
215	0xbe83a82a	-0.25714236
216	0xbd86f6c3	-0.06590035
217	0xbc1c905b	-0.009555901
218	0x3d364631	0.044500533
219	0xbcdea5b0	-0.027178615
220	0xbda1ab66	-0.0789402
221	0x3e72f178	0.23724926
222	0x3e1fd02c	0.15606755
223	0x3cd20b99	0.025640296
224	0xbea4a297	-0.32155296
225	0x3e50cb4b	0.2039005
226	0x3e2750bc	0.16339391
227	0xbe94aff2	-0.29040486
228	0x3d3cc308	0.046084434
229	0x3dc97a0c	0.09837732
230	0xbdcb802c	-0.09936556
231	0x3c25fcd9	0.010131084
232	0x3e98a308	0.29811883
233	0xbe3fdd09	-0.18736662
234	0xbe51d99e	-0.2049317
235	0x3e4b1781	0.19833185
236	0xbe1ab6f8	-0.1510886
237	0x3c629037	0.013828329
238	0xbc7e68a8	-0.015527882
239	0xbc7f4f1e	-0.015582828
240	0x3e4a75e5	0.19771536
241	0xbe6b1308	-0.22956479
242	0xbe866911	-0.26252034
243	0x3e3cdded	0.18444033
244	0xbd946bfd	-0.0724716
245	0xbdc6085c	-0.09669563
246	0xbdc1ba7d	-0.09459398
247	0x3e743dc1	0.23851682
248	0x3d3c2182	0.045930393
249	0x3e49a740	0.19692707
250	0xbe90e479	-0.2829931
251	0x3cdeba77	0.027188523
252	0x3e6d0262	0.2314544
253	0xbe879f04	-0.26488507
254	0xbca3bf2d	-0.01998862
255	0x3e32e1da	0.17468968

gat_layers.0.bias f4 [256]
0	0x3b72375d	0.0036959269
1	0xbd092015	-0.03347786
2	0x3d119788	0.035544902
3	0xbc814869	-0.015781598
4	0xbc1f6889	-0.009729513
5	0xbd091823	-0.033470284
6	0x3bc22fed	0.0059261234
7	0x3d90f976	0.07078831
8	0xbcc7fbc1	-0.024412038
9	0x3dae276b	0.08503612
10	0x3ca100e8	0.019653752
11	0xbcf03c2a	-0.029325563
12	0xbcca6cea	-0.024710137
13	0x3bb7e24d	0.005611694
14	0xbb00e5af	-0.0019668152
15	0x3d401898	0.046898454
16	0x3d621e86	0.05520489
17	0xbbf85b2a	-0.007579227
18	0xbc2564ff	-0.01009488
19	0x3d92c2c5	0.071660556
20	0xbc1d607f	-0.009605526
21	0xbcd5f2be	-0.026116725
22	0xbc53fc99	-0.012938642
23	0x3da278ab	0.07933172
24	0xbcfea5c7	-0.031084908
25	0x3ba29334	0.0049613956
26	0xbc7d0da3	-0.015445146
27	0xbc3f93d6	-0.011692962
28	0x3c888d48	0.01666893
29	0xbc578269	-0.013153651
30	0xb540c000	-7.180497e-07
31	0xbca096a9	-0.01960309
32	0x3c8b5fb9	0.017013418
33	0x3bf6a310	0.007526763
34	0xbc95c8a2	-0.018284146
35	0xbb149c2f	-0.00226761
36	0xbce2a8d6	-0.027668398
37	0xbcceddf7	-0.025252325
38	0xbc55556e	-0.013020856
39	0xb980fc40	-0.00024602003
40	0xbc532090	-0.0128861815
41	0x3c6a6a5a	0.014307583
42	0xbd095880	-0.033531666
43	0xbc851efc	-0.016250126
44	0x3d066ace	0.0328167
45	0xbccc91ad	-0.024971807
46	0x3c55c3cf	0.013047173
47	0x3ba849d1	0.0051357527
48	0x3d5dd635	0.054159362
49	0x3d1f1f1c	0.038848028
50	0x3ccb1f57	0.024795217
51	0xba9b7d41	-0.001186289
52	0x3cdce123	0.026962822
53	0x3b68dd25	0.0035532203
54	0x3d1e2dcf	0.038617905
55	0xba18473a	-0.00058089534
56	0x3b7b8c9c	0.003838337
57	0x3d5acdf2	0.05341906
58	0x3b557787	0.0032572465
59	0x3be31310	0.0069297627
60	0xbc562b21	-0.013071806
61	0x3d0e651a	0.034764387
62	0x3cbda7fa	0.023151387
63	0x3d3a2fd7	0.04545578
64	0x3ba4b24c	0.0050261375
65	0xbad31d89	-0.0016106825
66	0x3ce47331	0.027886959
67	0x3d4e77de	0.050407283
68	0xbae42603	-0.0017406348
69	0x3cfb5c58	0.030683681
70	0x3d155534	0.03645821
71	0x3da7ad5a	0.08187361
72	0x3dad2594	0.08454433
73	0x3b70b986	0.0036731674
74	0x3d4d83e4	0.05017461
75	0x3dac2560	0.08405566
76	0x3daa5cd8	0.0831849
77	0x3ca38297	0.019959731
78	0xbcff38ee	-0.031155076
79	0x3c2e47c1	0.010637225
80	0x3d09dac0	0.033655882
81	0x3e0d3323	0.13789038
82	0x3d5760d8	0.05258259
83	0xbb88d2fb	-0.0041755415
84	0xbc672159	-0.014107072
85	0xba36f012	-0.0006978522
86	0x3d7ef3bc	0.062244162
87	0x3d3b2d7c	0.045697674
88	0x3c4fecb7	0.012690715
89	0x3dbce495	0.09223286
90	0x3d169dc2	0.036771543
91	0x3d0061af	0.03134316
92	0x3c3f1e23	0.0116649
93	0x3bf414ca	0.0074487673
94	0x3d9b8267	0.07593232
95	0x3c306061	0.010765166
96	0x3d219c31	0.039455596
97	0x3db95f75	0.0905141
98	0x3de8cc9e	0.11367153
99	0x3c80367a	0.015650976
100	0x3cd0649d	0.025438601
101	0xbc230ee8	-0.009952284
102	0x3c34e37c	0.011040565
103	0x3dbda2b8	0.09259552
104	0x3b50e267	0.0031873228
105	0x3e044fbd	0.12921043
106	0x3c0d56a6	0.008626616
107	0x3c6d673e	0.014489947
108	0x3cc6dbf4	0.024274804
109	0x3d76a751	0.06021816
110	0xbc8183a6	-0.015809845
111	0x3d39eb06	0.04539015
112	0xbc8debb0	-0.017324299
113	0xbc6e9dce	-0.014563991
114	0x3e08e892	0.13369969
115	0xbc17a975	-0.00925671
116	0xbb89bc30	-0.004203342
117	0xba9457f1	-0.0011317712
118	0xbcc5fd42	-0.024168614
119	0x3c92374d	0.017848635
120	0x3d622fb5	0.05522128
121	0x3de68390	0.11255562
122	0x3ab443b3	0.0013753086
123	0x3da0186e	0.078171596
124	0xbca421d2	-0.020035658
125	0xbc821067	-0.015876962
126	0x3d9584dd	0.07300732
127	0x3d7b7b1f	0.061396714
128	0x3d70c592	0.058782168
129	0xbb8f9ba3	-0.004382567
130	0x3ca47000	0.020072937
131	0x3d42b3a2	0.047534592
132	0x3b71387e	0.0036807354
133	0x3c4a5f52	0.012351828
134	0xbc3b8445	-0.01144511
135	0x3dd618b1	0.10453928
136	0x3cb1ba64	0.021695323
137	0xbbdaf9ec	-0.006682625
138	0x3d3acb47	0.045604017
139	0xbc739bef	-0.01486872
140	0x3d8bfdad	0.06835494
141	0xbcfdf79f	-0.031001864
142	0x3db790ed	0.08963189
143	0xbbae1b21	-0.0053132926
144	0xbb8a4272	-0.0042193467
145	0x3dec43e4	0.115363866
146	0x3deef82d	0.116684295
147	0xbbc59cfe	-0.006030678
148	0xbc85c452	-0.016328964
149	0x3d3f15ce	0.046651654
150	0x3a91a3c1	0.0011111425
151	0xbd111d5e	-0.035428397
152	0x3d497752	0.04918606
153	0x3c8323b8	0.016008243
154	0x3c93b92c	0.018032633
155	0x3cc90ddd	0.024542743
156	0xbc12bcce	-0.008956147
157	0x3d82074a	0.063490465
158	0x3de7e6a9	0.11323292
159	0xbbf51b19	-0.007480037
160	0xbcc0db19	-0.023541974
161	0x3d61b7d1	0.05510694
162	0x3cf979c1	0.030453565
163	0xbce4a232	-0.027909372
164	0x3d637d33	0.05553932
165	0x3bac3b2d	0.0052560777
166	0x3d4e5929	0.050378
167	0x3bd56423	0.0065121814
168	0x3bc72ef3	0.006078595
169	0x3d7aaa3d	0.061197508
170	0x3ca7d10a	0.02048542
171	0x3e02a44a	0.12757984
172	0xbc3daa13	-0.011576193
173	0x3d66bc62	0.056332
174	0x3c3f5717	0.011678479
175	0x3d037966	0.032098196
176	0x3cce6ace	0.025197413
177	0x3d183342	0.03715826
178	0x3d56875e	0.05237519
179	0xbae78e7a	-0.0017666363
180	0x3ddfce31	0.10928
181	0xbc11e5ce	-0.008904887
182	0x3d5c7b6f	0.053828653
183	0xbbdabfdc	-0.0066757035
184	0x3b8d426a	0.0043108957
185	0xbbba58b1	-0.0056868424
186	0xbc06a845	-0.0082188295
187	0xbc3ebc55	-0.011641582
188	0xbd033b46	-0.03203895
189	0x3d844039	0.06457562
190	0xbba38e19	-0.0049913046
191	0x3ddd8fdf	0.10818457
192	0x3dcb9cb4	0.09941998
193	0x3bbcb539	0.005758908
194	0x3c1e29b9	0.009653502
195	0x3d88d673	0.06681528
196	0xbbfb1ae7	-0.007663119
197	0xbc6ca5d9	-0.014443838
198	0x3d30b0e5	0.04313745
199	0x3d50c8ea	0.050972857
200	0x3cdb8a1c	0.026799254
201	0x3e159715	0.14608414
202	0x3dd8bc2a	0.105827644
203	0x3d2cbf6a	0.042174734
204	0xbcc81193	-0.024422443
205	0x3c3632f6	0.0111205485
206	0x3d68e640	0.05686021
207	0x3af3b714	0.001859399
208	0x3c9a2cfa	0.018820275
209	0xbc78800d	-0.015167248
210	0xbcbe335c	-0.02321785
211	0x3d503e64	0.05084075
212	0x3e00791e	0.12546203
213	0x3dd08dae	0.10183273
214	0x3dc29314	0.09500709
215	0x3cee3b46	0.029080998
216	0x3d8476fb	0.06468006
217	0x3c6adce7	0.014334894
218	0xbcd1fe0e	-0.025633838
219	0x3df0a68b	0.117505156
220	0x3d15ec14	0.036602095
221	0x3d8a9d15	0.06768242
222	0x3dd3c421	0.10340143
223	0x3d3ce521	0.04611695
224	0x3da9a2b2	0.08282985
225	0x3c92e8df	0.017933307
226	0x3c1b817a	0.009491319
227	0x3b80a92b	0.0039264164
228	0x3c847ec9	0.016173737
229	0xbc625fa2	-0.013816746
230	0x3c936ae5	0.017995307
231	0xbcccc4cc	-0.024996184
232	0xbcdb72ea	-0.026788194
233	0xbcbc7dda	-0.02300923
234	0x3dbc451e	0.091928706
235	0x3d16589c	0.0367056
236	0xbbdd8f29	-0.006761451
237	0xbb0ce23e	-0.0021497156
238	0x3db91ada	0.09038325
239	0x3ad90c22	0.0016559402
240	0x3d81ea86	0.0634356
241	0x3c6cb8f9	0.014448398
242	0xbb4dbcb0	-0.0031392984
243	0x3d8310fb	0.06399723
244	0x3c004cfe	0.007830856
245	0x3bcc728f	0.0062392424
246	0x3b02973c	0.0019926568
247	0x3d6e9fef	0.058257993
248	0x3da52336	0.080633566
249	0xbc4a138c	-0.012333762
250	0xbb82e29b	-0.0039942986
251	0x3d8ad27f	0.0677843
252	0x3b91ad7a	0.004445729
253	0xbc7adc52	-0.0153113175
254	0xbb9f1b38	-0.0048555396
255	0x3ca3b658	0.01998441

gat_layers.0.lin.weight f4 [256, 64]
0	0xbcea1ba9	-0.028577643
1	0xbded3297	-0.11581915
2	0xbda5ecbb	-0.081017934
3	0xbddf4fb0	-0.10903871
4	0x3d480464	0.048832312
5	0xbb4125ca	-0.0029471987
6	0xbdbb02d8	-0.09131402
7	0xbc0c6022	-0.008567842
8	0xbda60757	-0.08106869
9	0x3e136066	0.14392242
10	0x3d42cf4e	0.047560982
11	0xbd4e0b80	-0.050303936
12	0xbccf8be6	-0.025335263
13	0x3c86c17b	0.01644968
14	0x3d0e6995	0.03476866
15	0xbc388c2e	-0.01126389
16	0xbca785e6	-0.02044959
17	0x3cabbe82	0.020964865
18	0x3db31d89	0.08745868
19	0x3de99904	0.114061385
20	0x3ca0801b	0.019592335
21	0xbddffae5	-0.10936526
22	0x3dccf8de	0.10008405
23	0xbd231560	-0.039815307
24	0xbde455ad	-0.11149154
25	0xbe199d2b	-0.15001361
26	0xbcd717ad	-0.026256407
27	0x3d826e0e	0.063686475
28	0x3d4d42b1	0.05011243
29	0xbdb74f15	-0.089506306
30	0x3c072777	0.008249155
31	0xbdd8c263	-0.10583951
32	0xbc6d13fe	-0.014470099
33	0xbd65da70	-0.05611652
34	0x3d3a50bd	0.045487154
35	0x3a1cede8	0.00059863785
36	0x3d0e4c14	0.034740523
37	0x3c4dcda3	0.012561235
38	0xbded130e	-0.115759
39	0xb9a4c411	-0.00031426598
40	0x3db60fe8	0.088897526
41	0x3e00d4c3	0.12581162
42	0xbd899902	-0.06718637
43	0x3d94e82a	0.07270844
44	0x3ccf776a	0.025325496
45	0x3dbd3050	0.092377305
46	0xbbc6c058	-0.0060654096
47	0x3c964027	0.018341137
48	0x3def2132	0.116762534
49	0xbc098592	-0.008393662
50	0x3de91c15	0.11382309
51	0x3de74734	0.11292878
52	0xbe0a210f	-0.13489173
53	0xbd81f308	-0.06345183
54	0x3d44d344	0.04805304
55	0xbd7cc790	-0.061713755
56	0x3dbe0533	0.092783354
57	0xbc17a628	-0.009255923
58	0x3da971c5	0.08273653
59	0x3bbfc0ee	0.0058518564
60	0xbc3c1705	-0.011480098
61	0xbe036f7e	-0.128355
62	0xbd198c5f	-0.037487384
63	0xbddb011c	-0.10693571
64	0xbd9801db	-0.07422229
65	0xbda2b322	-0.07944323
66	0xbd964f5e	-0.07339357
67	0x3dd1016a	0.10205348
68	0x3c6eb8ac	0.014570396
69	0x3cb671a1	0.02227098
70	0x3cdc9753	0.026927626
71	0x3de4e7e6	0.111770436
72	0xbdb032cc	-0.08603439
73	0x3d2b0475	0.041752297
74	0x3d46a193	0.048493933
75	0x3dc1f3b5	0.094703116
76	0x3d5529e7	0.052041914
77	0x3dcd889d	0.100358225
78	0xbc188cfe	-0.009310959
79	0xbd833ff8	-0.064086854
80	0x3e0a089f	0.13479851
81	0xbd0f5f55	-0.035003025
82	0xbdd0b2f1	-0.1019038
83	0xbdf9f8dd	-0.1220567
84	0xbc3dff75	-0.01159655
85	0x3c9fb888	0.019497171
86	0xbc76b021	-0.015056641
87	0x3c0a176e	0.008428438
88	0xbcc0e7cf	-0.023548035
89	0xbe12cb3d	-0.14335342
90	0x3dd17def	0.10229098
91	0x3dacba22	0.084339395
92	0xbd62ba8d	-0.05535369
93	0x3e15576a	0.14584127
94	0x3ddd2855	0.10798708
95	0x3dcf3472	0.10117425
96	0x3d2a5b40	0.04159093
97	0x3d99acaa	0.07503636
98	0xbc0bad31	-0.008525179
99	0x3d8f68c3	0.070024036
100	0x3dd3ab07	0.10335355
101	0xbbbfb602	-0.0058505544
102	0xbdaba0f9	-0.083803125
103	0xbe13003f	-0.14355563
104	0x3b61afb3	0.0034437
105	0xbd8199c7	-0.06328159
106	0x3ddaaa3c	0.10677001
107	0x3d1185b2	0.035527892
108	0xbdb6689c	-0.089066714
109	0xbce3b030	-0.027793974
110	0x3d449eb0	0.0480029
111	0x3d9be14b	0.076113306
112	0xbb40f018	-0.0029439982
113	0x3c111a02	0.008856298
114	0xbdec0504	-0.11524394
115	0xbe159752	-0.14608505
116	0xbd5f7486	-0.054554485
117	0x3dbbb45b	0.091652595
118	0xbd62dc9e	-0.05538618
119	0x3d263fb1	0.040588085
120	0x3dcffaad	0.101552345
121	0xbde8378d	-0.113387205
122	0x3c02f301	0.007992507
123	0x3c823216	0.015893023
124	0xbdc3e42c	-0.09565005
125	0x3c888c15	0.016668359
126	0x3d88dd5b	0.06682845
127	0xbd02719c	-0.031846628
128	0x3c736517	0.014855645
129	0xbd7b1df5	-0.061307866
130	0x3d1e3cc1	0.03863216
131	0x3e1d457f	0.15358542
132	0xbd579d52	-0.052640267
133	0xbd68c8e2	-0.0568322
134	0xbe03dfa7	-0.12878285
135	0x3e0594dd	0.13045068
136	0x3d811c09	0.063041754
137	0xbc9c9bb4	-0.019117214
138	0xbc651ef9	-0.013984435
139	0xbe079375	-0.13239844
140	0x3cbfe73d	0.023425693
141	0x3d90a1b7	0.07062095
142	0x3d9f8bc2	0.077903286
143	0xbe08d8f3	-0.1336401
144	0xbe1f5a65	-0.15561827
145	0xbe093753	-0.13400011
146	0x3e108794	0.14114219
147	0xbdb34f3d	-0.08755348
148	0x3cc453cf	0.023965744
149	0x3cbd2d4d	0.02309289
150	0xbe0a5de8	-0.13512385
151	0x3d7db1b3	0.061937045
152	0x3d797b88	0.060908824
153	0xbd52e6af	-0.05148953
154	0xbe11f82a	-0.14254823
155	0xbdf65cce	-0.1202942
156	0x3d1deb43	0.03855444
157	0x3d421fca	0.047393598
158	0xbdcc0a9d	-0.09962962
159	0xbc4b9e8a	-0.012427935
160	0x3d813e86	0.063107535
161	0x3d212ab6	0.039347373
162	0xbdbc937c	-0.09207818
163	0x3cd8acb0	0.026449531
164	0xbd9e5fb3	-0.07733097
165	0xbc5b907e	-0.013401149
166	0x3d6922fb	0.056918126
167	0x3e025531	0.1272781
168	0x3e096297	0.13416515
169	0xbc563ec8	-0.013076492
170	0xbd9d24ec	-0.07673058
171	0x3dddf95e	0.10838579
172	0xbe1b767f	-0.15181921
173	0xbdb77b1a	-0.08959027
174	0x3da387af	0.07984864
175	0xbd8096b2	-0.06278743
176	0xbc981806	-0.018566143
177	0xbdfadc68	-0.122490704
178	0xbd128d26	-0.03577914
179	0x3e11fbfa	0.14256278
180	0xbca0d217	-0.019631429
181	0x3d545163	0.05183543
182	0x3d49d701	0.04927731
183	0x3e193300	0.14960861
184	0x3d62b585	0.05534889
185	0x3dc8f874	0.09813014
186	0xbc748933	-0.014925289
187	0xbd50c18c	-0.05096583
188	0xbdf8a683	-0.121411346
189	0x3d3d605b	0.04623447
190	0xbdfab76d	-0.12242017
191	0x3d961927	0.07329016
192	0x3e1567b6	0.14590344
193	0xbe03a416	-0.12855563
194	0xbe04f2a5	-0.12983187
195	0x3da41719	0.08012218
196	0xbdf051c2	-0.11734344
197	0x3be4594d	0.0069686533
198	0xbb850bc7	-0.004060242
199	0xbddb729d	-0.1071522
200	0x3e0e8598	0.1391815
201	0x3adcc346	0.0016842864
202	0x3de9cb28	0.11415702
203	0x3d308b71	0.04310173
204	0xbc203f32	-0.009780692
205	0x3d900ee4	0.0703409
206	0xbdb40770	-0.08790481
207	0x3d45fb52	0.04833538
208	0xbb86b7ff	-0.0041112895
209	0xbc41e258	-0.01183375
210	0xbd1226f9	-0.0356817
211	0xbcce2414	-0.025163688
212	0xbe00b664	-0.12569577
213	0x3dc67a18	0.09691256
214	0x3e058adf	0.13041256
215	0xbc8f5760	-0.017497718
216	0x3d89dabe	0.06731175
217	0x3e0e69a2	0.13907483
218	0xbd536a2e	-0.051614933
219	0xbd440a2d	-0.047861267
220	0x3c337415	0.010952969
221	0x3d586c56	0.052837692
222	0xbd9ad956	-0.07560985
223	0xbd9fa0d9	-0.07794351
224	0x3d817790	0.06321633
225	0xbd5d4dc0	-0.054029226
226	0xbba3240e	-0.0049786633
227	0xbd5ee6fa	-0.054419495
228	0x3a7aa6db	0.00095616066
229	0xbdd20c08	-0.10256201
230	0x3e1e5feb	0.15466277
231	0xbe14db81	-0.14536859
232	0xbd25f182	-0.040513523
233	0x3cd4b149	0.025963442
234	0xbd8c2de2	-0.06844689
235	0xbca7fabe	-0.020505305
236	0xbd88b14c	-0.06674442
237	0x3dd7813f	0.105226986
238	0x3db75c7d	0.089531876
239	0x3c619005	0.013767247
240	0xbd962af0	-0.073324084
241	0x3cc65d15	0.024214307
242	0x3ddd31a1	0.108004816
243	0x3d2a5ea6	0.04159417
244	0xbd92730a	-0.07150848
245	0xbd6e11a4	-0.058122292
246	0xbd89c5a0	-0.06727147
247	0x3dad73b4	0.08469334
248	0x3e13387c	0.14377016
249	0x3ce2f10d	0.027702833
250	0x3d070db4	0.032972053
251	0xbdc52e5c	-0.09627983
252	0x3d8feef8	0.070280015
253	0xbdec8716	-0.11549203
254	0xbd71b509	-0.05901054
255	0xbde0096e	-0.109392986

gat_layers.1.att_src f4 [1, 4, 64]
0	0xbe39565e	-0.18099353
1	0xbd098b4b	-0.033580106
2	0xbb439566	-0.0029843687
3	0x3a3250bd	0.0006802192
4	0xbdec76f6	-0.115461275
5	0xbe91bdf6	-0.2846524
6	0xbe774a57	-0.24149452
7	0xbd7b7ebc	-0.06140016
8	0x3e894bcb	0.26815638
9	0xbe6288f2	-0.22122553
10	0xbe4cab19	-0.19987144
11	0xbe4f7b40	-0.2026186
12	0x3e8d1535	0.27555242
13	0xbe0c77ab	-0.13717525
14	0xbe414539	-0.18874063
15	0x3ea190e1	0.31555846
16	0xbe09b609	-0.13448347
17	0xbdacea58	-0.08443135
18	0xbd74d606	-0.05977442
19	0x3e84e511	0.25956014
20	0x3c855b36	0.016278844
21	0xbe0f1cd1	-0.13975836
22	0xbdeae44f	-0.11469328
23	0x3e9e12a3	0.30873594
24	0xbd8dabed	-0.06917558
25	0xbdd8d426	-0.10587339
26	0xbd21d0b1	-0.039505664
27	0xbe810bfa	-0.2520445
28	0x3db046e4	0.08607271
29	0x3dff7a35	0.12474481
30	0x3e0dcc4d	0.13847466
31	0x3df42bb7	0.119224004
32	0x3e830094	0.2558638
33	0x3e9496bb	0.29021248
34	0xbdf06a9c	-0.11739084
35	0x3cd4d2a6	0.025979351
36	0x3e046bc4	0.12931734
37	0x3e657ad2	0.22410133
38	0xbdeb7d8a	-0.11498554
39	0x3e0e46cf	0.13894199
40	0xbe5db93a	-0.2165269
41	0x3b605707	0.003423156
42	0xbcd1e9f1	-0.025624247
43	0x3e486997	0.1957153
44	0xbe30c430	-0.1726234
45	0xbe3fe631	-0.18740155
46	0x3e0b05b2	0.13576391
47	0x3d0c1759	0.034201954
48	0x3b70a4a5	0.003671923
49	0xbe6bf370	-0.23042083
50	0x3e068ddb	0.13140051
51	0x3ba77ad7	0.005111079
52	0x3e2b8fda	0.16754094
53	0x3ba836c0	0.00513348
54	0xbdd10940	-0.102068424
55	0x3d55ecbc	0.05222772
56	0x3dd2765f	0.10276484
57	0xbe7b1be5	-0.2452236
58	0xbe8ba115	-0.27271333
59	0xbe1616b4	-0.14657098
60	0x3d3a8611	0.045538012
61	0xbc9c3c27	-0.019071652
62	0xbc05c298	-0.008164071
63	0xbbb95912	-0.00565637
64	0xbe54881a	-0.20755044
65	0x3e67a28e	0.22620603
66	0x3c4e29f4	0.012583245
67	0xbe839357	-0.2569835
68	0xbd89007b	-0.06689545
69	0x3e3678fb	0.17819588
70	0x3e043c94	0.12913734
71	0x3d3b934a	0.045794763
72	0x3d8cc4a9	0.068734474
73	0xbe88571b	-0.26628956
74	0xbd3e6075	-0.046478707
75	0x3da2d4a0	0.07950711
76	0x3db39de3	0.08770349
77	0xbd3238b6	-0.043511115
78	0xbdecbc82	-0.115593925
79	0xbe8b24b8	-0.27176452
80	0xbd972186	-0.07379441
81	0xbe6a07e0	-0.22854567
82	0xbdd6727f	-0.10471057
83	0xbe8ea926	-0.27863425
84	0xbd9bd2f3	-0.07608595
85	0xbd2a6c8e	-0.041607432
86	0x3db82360	0.08991122
87	0x3d6058e7	0.054772284
88	0x3945f81e	0.00018879815
89	0x3d794d32	0.060864635
90	0x3c6d73e3	0.014492962
91	0xbe937a1a	-0.28804094
92	0xbd0cb4ea	-0.03435222
93	0x3e6daa91	0.23209597
94	0xbd25fd0e	-0.040524535
95	0x3c2e0f4a	0.010623762
96	0x3d2cee12	0.04221923
97	0xbde82c12	-0.11336531
98	0x3e5892e5	0.21149786
99	0x3d85d2af	0.06534325
100	0x3e301e24	0.17198998
101	0xbe967b7d	-0.2939109
102	0x3e6e6c11	0.23283412
103	0x3ea4a1b9	0.32154635
104	0x3e1552ff	0.14582442
105	0xbe6a761d	-0.22896619
106	0xbe70b2f9	-0.23505773
107	0xbe686af2	-0.22697046
108	0xbe945de1	-0.28977874
109	0xbe858bfd	-0.26083365
110	0x3d3919a2	0.04519046
111	0xbc144783	-0.009050253
112	0xbe0013c8	-0.12507546
113	0xbceb2f54	-0.028709091
114	0xbe010456	-0.1259931
115	0xbe740029	-0.23828186
116	0x3cd7cfc5	0.02634419
117	0xbe94a617	-0.29032966
118	0x3ca96bb0	0.020681232
119	0x3e59a0af	0.21252702
120	0xbe559201	-0.20856477
121	0x3d85c9fe	0.065326676
122	0x3db041f8	0.086063325
123	0xbdfa21a1	-0.122134455
124	0xbdc5e20f	-0.09662258
125	0x3cc8c1d2	0.024506483
126	0xbd6f701e	-0.058456533
127	0xbe7b0205	-0.24512489
128	0xbe821a4d	-0.2541069
129	0xbe173732	-0.14767149
130	0xbdca97b3	-0.098922156
131	0x3d866ff7	0.06564324
132	0x3e12e0af	0.14343522
133	0xbe8dbaa0	-0.27681446
134	0xbe61d405	-0.22053535
135	0xbe74cfe8	-0.23907435
136	0x3d5a9f22	0.053374417
137	0xbd335bf4	-0.043788865
138	0xbe682943	-0.2267199
139	0xbe79b226	-0.24384364
140	0x3e83ff48	0.25780702
141	0xbe707ba7	-0.2348467
142	0xbe279497	-0.16365276
143	0xbe882ac8	-0.2659514
144	0x3e50ee06	0.20403299
145	0xbe0ff13c	-0.14056867
146	0x3e13e236	0.14441761
147	0x3e58f7c9	0.21188273
148	0x3e666732	0.22500303
149	0x3e1708cf	0.14749454
150	0xbe160ed0	-0.14654088
151	0xbe07f103	-0.13275532
152	0x3dc074f9	0.09397311
153	0x3e5b5a1b	0.21421091
154	0x3e1608c2	0.14651778
155	0x3a7ec5ae	0.00097187876
156	0xbe0e6b4d	-0.1390812
157	0xbc1f72e2	-0.00973198
158	0x3e65da61	0.22446586
159	0x3dae828b	0.08520993
160	0x3e72ac09	0.23698439
161	0x3e759536	0.239827
162	0x3942ba10	0.00018570595
163	0x3ea1e1d2	0.316176
164	0xbe857e31	-0.2607284
165	0x3e289c4e	0.16465876
166	0x3d0813b7	0.033221927
167	0xbd0eafd1	-0.03483564
168	0x3e12cb22	0.14335302
169	0xbc930626	-0.017947268
170	0xbe262291	-0.16224124
171	0x3e4946fa	0.19655982
172	0x3e2f2832	0.17105177
173	0xbdd0dec7	-0.101987414
174	0x3ddfea3d	0.10933349
175	0xbaa18420	-0.0012322702
176	0xbcaf02b0	-0.021363586
177	0xbdd71709	-0.105024405
178	0xbc008784	-0.007844809
179	0x3e837045	0.25671592
180	0x3e9daddd	0.3079671
181	0xbe859296	-0.260884
182	0x3da0bce6	0.078485295
183	0xbe8ccddd	-0.2750081
184	0x3e8b9a4f	0.27266166
185	0xbe32182d	-0.17392035
186	0x3e8af2af	0.27138278
187	0x3e5984a7	0.21242009
188	0xbe512bef	-0.20426916
189	0xbe026908	-0.12735379
190	0x3cffc63c	0.031222455
191	0x3e76bc61	0.24095298
192	0xbdd43374	-0.103613764
193	0xbe1f2f7e	-0.1554546
194	0xbe54f9a8	-0.20798361
195	0x3d1989b1	0.03748483
196	0x3e8cb334	0.2748047
197	0xbe67fd04	-0.22655112
198	0xbd87d4a3	-0.06632354
199	0x3e916bbd	0.2840251
200	0xbdfdc0d0	-0.12390292
201	0xbe17dfbd	-0.14831443
202	0xbd8c0550	-0.06836951
203	0x3e87a2f9	0.26491526
204	0xbe1400fb	-0.14453499
205	0x3e85695e	0.2605695
206	0xbddae128	-0.106874764
207	0xbe5f710a	-0.21820465
208	0x3e12edc0	0.14348507
209	0x3cd78fbf	0.02631366
210	0xbdb4d674	-0.08829966
211	0x3cc2b172	0.023766253
212	0xbe5b62f2	-0.21424463
213	0x3e935a97	0.28780052
214	0x3bb1134b	0.005403911
215	0xbe66fe7a	-0.22558013
216	0x3e24bb30	0.16087031
217	0x3e6bdc84	0.23033339
218	0xbe1241a3	-0.14282851
219	0x3dedaa73	0.11604776
220	0xbe4f8c32	-0.20268324
221	0xbe1dc4b9	-0.15407075
222	0x3d607328	0.05479732
223	0x3bbb51b0	0.005716525
224	0xbd8a6c28	-0.067589104
225	0xbdca1bf2	-0.098686114
226	0xbe965a8f	-0.29365966
227	0xbd395969	-0.045251284
228	0xbe3119c9	-0.17294993
229	0x3e486fb6	0.19573864
230	0xbd56df58	-0.05245909
231	0xbd9b84b3	-0.0759367
232	0xbe4e3e70	-0.20141006
233	0x3e926e42	0.28599745
234	0xbe951a2f	-0.2912154
235	0xbdef4cc6	-0.11684565
236	0xbe4e3c4e	-0.20140192
237	0x3d8cd43b	0.06876417
238	0x3da57adf	0.080800764
239	0xbe170029	-0.14746155
240	0xbd98705c	-0.07443306
241	0xbe2dafb7	-0.16961561
242	0x3da08aa9	0.07838947
243	0xbe80ed3c	-0.25180995
244	0xbe8b5f90	-0.27221346
245	0xbe476658	-0.19472635
246	0xbe0c58c3	-0.13705735
247	0xbe25d61f	-0.16194962
248	0xbe8ff1d9	-0.28114203
249	0x3d805cbf	0.0626769
250	0x3d992953	0.07478585
251	0x3d8f2d01	0.06991006
252	0x3e5816f4	0.21102506
253	0xbe8629ce	-0.2620377
254	0xbd01a200	-0.031648636
255	0x3df72f64	0.12069586

gat_layers.1.att_dst f4 [1, 4, 64]
0	0x3cc77440	0.024347425
1	0x3d8eb442	0.06967975
2	0xbd7f3bd6	-0.062312923
3	0xbe897d3d	-0.26853362
4	0x3e709001	0.23492433
5	0xbe430301	-0.19044115
6	0x3cb737ca	0.02236547
7	0x3e2c15d4	0.16805202
8	0x3e2aac49	0.16667284
9	0xbd9fba2d	-0.07799182
10	0xbd1ae627	-0.037817147
11	0xbd96b07b	-0.0735788
12	0x3e4fc122	0.20288518
13	0xbcdee975	-0.02721093
14	0xbe4129ca	-0.18863598
15	0xbd084963	-0.033273112
16	0xbe5edd76	-0.21764168
17	0x3d92e7df	0.07173132
18	0x3d3d9a75	0.04628988
19	0xbe7a261e	-0.24428603
20	0x3e6d0ab1	0.2314861
21	0x3e321922	0.173924
22	0xbe2bea72	-0.16788653
23	0xbe204132	-0.1564987
24	0xbe0837a5	-0.13302477
25	0x3e83d078	0.25744987
26	0xbe184f57	-0.14874016
27	0x3d8d4b0c	0.0689908
28	0x3e12fec5	0.14355
29	0xbe3693a6	-0.17829761
30	0x3d94bc68	0.07262498
31	0xbdddfcc4	-0.10839227
32	0x3e23f52e	0.16011497
33	0x3e2c3116	0.168156
34	0x3e8676fd	0.26262656
35	0xbe1e91be	-0.15485284
36	0xbe034c49	-0.12822069
37	0xbe15276f	-0.14565824
38	0x3e55da6a	0.208841
39	0x3e8870d2	0.26648575
40	0xbc2e1236	-0.010624459
41	0xbe6a1cdf	-0.22862576
42	0x3cd25b79	0.025678383
43	0xbdac7a0d	-0.08421717
44	0x3e85e1ce	0.26148838
45	0x3dc2523f	0.094883434
46	0x3e2566ff	0.16152571
47	0x3e7bbf07	0.2458459
48	0xbe2bf7d4	-0.16793758
49	0xbdb80ed4	-0.08987203
50	0x3c868169	0.01641913
51	0xbe31a10e	-0.17346594
52	0x3e3b2892	0.18277195
53	0xbe8cfa5a	-0.27534753
54	0xbdf7861e	-0.12086128
55	0xbe81cab1	-0.25349954
56	0x3bdd1366	0.0067466972
57	0x3e1f375c	0.15548462
58	0x3e492d9e	0.19646308
59	0x3e35a4e2	0.17738679
60	0x3e2250a9	0.15851082
61	0x3e9a5ee0	0.3015051
62	0x3dd82fea	0.10556014
63	0x3ded9189	0.11600024
64	0x3e2e5b1c	0.17026943
65	0x3c9a1e8e	0.018813398
66	0xbe9a1e56	-0.3010127
67	0x3e481a99	0.19541396
68	0xbd46e2dc	-0.048556194
69	0x3e860d11	0.26181844
70	0xbd302748	-0.04300621
71	0xbd1eba00	-0.038751602
72	0xbb42391a	-0.0029636086
73	0x3e4e0cad	0.20122023
74	0xbe2257f2	-0.15853861
75	0xbe7be4d6	-0.24599013
76	0x3e3a3a42	0.18186286
77	0xbe92fb51	-0.28707364
78	0xbc216ae2	-0.009852143
79	0xbe42b516	-0.19014391
80	0x3e5f4e27	0.21807157
81	0x3e357c26	0.1772314
82	0xbe15528a	-0.14582267
83	0x3e5af6b0	0.21383166
84	0xbcc686b5	-0.024234155
85	0x3e69d2eb	0.22834365
86	0x3ca239ea	0.019803006
87	0xbe5036ee	-0.20333454
88	0x3e867d95	0.26267686
89	0x3e89d0e0	0.2691717
90	0x3d4a8b8f	0.0494495
91	0xbd96b31d	-0.07358382
92	0xbe69cb05	-0.22831352
93	0xbe8eeb81	-0.2791405
94	0x3bfe972f	0.0077694873
95	0xbe753c21	-0.23948719
96	0x3e24dc02	0.16099551
97	0xbcbd3226	-0.023095202
98	0xbe3c7250	-0.18402982
99	0x3d566706	0.052344345
100	0xbd970ab1	-0.07375086
101	0xbe6dc82a	-0.23220888
102	0x3e095620	0.1341176
103	0xbd72680e	-0.059181266
104	0xbe1fafa4	-0.15594345
105	0x3e8498dc	0.25897872
106	0xbd632046	-0.0554507
107	0x3e84dbc5	0.2594892
108	0xbdf273b8	-0.11838478
109	0x3c87902f	0.016548244
110	0x3c8b5b3b	0.017011276
111	0xbdae2748	-0.08503586
112	0xbe08fc57	-0.1337751
113	0x3e6e7cf3	0.23289852
114	0xbc805e8a	-0.01567008
115	0xbdfaa5e0	-0.122386694
116	0xbe30c1d4	-0.1726144
117	0x3e59fd8b	0.21288125
118	0xbd9815aa	-0.07426007
119	0xbca4f49e	-0.020136174
120	0x3e87e009	0.26538113
121	0x3e9379b5	0.28803793
122	0xbd7bd8e2	-0.061486132
123	0xbd26f904	-0.040764824
124	0xbe05c710	-0.13064218
125	0x3d1010e1	0.035172347
126	0x3dc990fc	0.09842107
127	0x3e02ec10	0.12785363
128	0x3e015e5e	0.12633654
129	0x3e0e399a	0.13889161
130	0x3e8bfe67	0.2734253
131	0x3db1a8c7	0.0867477
132	0xbe51ff84	-0.20507628
133	0x3e489a7c	0.19590181
134	0x3e5d4b01	0.21610643
135	0xbd47c5e3	-0.048772704
136	0x3dbebd23	0.09313419
137	0x3e3ca480	0.18422127
138	0x3e882fb0	0.26598883
139	0xbe656e8f	-0.22405456
140	0x3e68a4cf	0.2271912
141	0xbe52cbe5	-0.20585592
142	0xbbe64c58	-0.007028144
143	0xbdb4f11a	-0.08835049
144	0xbdb3b192	-0.08774103
145	0x3e170269	0.14747013
146	0xbe61859f	-0.22023629
147	0xbd95e6d8	-0.073194206
148	0xbd9ee116	-0.077577755
149	0x3d482276	0.04886099
150	0x3cc7d3ed	0.024393046
151	0xbd925d78	-0.07146734
152	0xbe6c36c4	-0.23067766
153	0x3db2824c	0.087162584
154	0x3de516bf	0.11185979
155	0x3e886a22	0.26643473
156	0xbe53bcec	-0.20677537
157	0x3e0a5992	0.13510731
158	0x3de91e3a	0.113827184
159	0xbd8ca174	-0.06866732
160	0xbe87f1ef	-0.26551768
161	0xbba5ce5d	-0.005060001
162	0xbe2b4eb9	-0.16729249
163	0x3e650dcc	0.22368544
164	0xbc16f664	-0.009214018
165	0xbdd6eeba	-0.10494752
166	0xbd67e074	-0.05661054
167	0xbe8fce0f	-0.28086898
168	0x3e8bb455	0.2728602
169	0xbe81ffad	-0.25390378
170	0xbd327eb4	-0.043577865
171	0xbe685381	-0.22688104
172	0xbe27061e	-0.16310927
173	0xbe01d39e	-0.12678382
174	0xbe6b359a	-0.22969666
175	0xbe2ce2e5	-0.16883428
176	0x3e985de3	0.2975913
177	0xbe1df6c5	-0.15426166
178	0xbe7175d5	-0.23580106
179	0xbdce015b	-0.10058852
180	0xbe563aa6	-0.2092081
181	0x3e95801c	0.29199302
182	0xbdfd3d70	-0.12365234
183	0xbe206b60	-0.1566596
184	0x3db52e23	0.088466905
185	0x3de22266	0.11041717
186	0xbe6f063e	-0.23342225
187	0x3dda6128	0.10663062
188	0xbe70419e	-0.23462531
189	0xbeac9a41	-0.33711436
190	0xbe74bad5	-0.23899396
191	0x3e700cbf	0.23442362
192	0x3c66a9d0	0.014078572
193	0xbe73013a	-0.23730937
194	0x3d519fa9	0.051177654
195	0xbe1273ea	-0.1430203
196	0x3dc516db	0.096235
197	0xbe883b45	-0.2660772
198	0xbe74e18c	-0.23914164
199	0x3e8264b1	0.25467446
200	0xbe6a20a1	-0.2286401
201	0xbe91e36b	-0.2849382
202	0x3ce5142b	0.027963718
203	0x3d09c0f7	0.03363129
204	0xbe81c2f7	-0.2534406
205	0xbe8d8e07	-0.2764742
206	0xbe93bf4c	-0.28856885
207	0x3c9cdbee	0.01914784
208	0x3e956845	0.29181114
209	0xbbf31dfd	-0.0074193464
210	0x3e3ead54	0.18620807
211	0xbea9c541	-0.33158305
212	0xbe41b58b	-0.1891691
213	0x3daa9c07	0.08330541
214	0xbda5304a	-0.08065851
215	0xbe3e7e76	-0.18602929
216	0x3d7b576a	0.06136266
217	0x3db16fd5	0.086639084
218	0xbc05bd8e	-0.008162869
219	0xbe0be642	-0.13662055
220	0x3e290ff8	0.16509998
221	0x3e4fdb99	0.20298614
222	0xbe3f49a3	-0.18680434
223	0xbd88a82a	-0.066727
224	0x3e7c0811	0.24612452
225	0x3d22e3ab	0.039767902
226	0x3e3852bd	0.18000312
227	0x3de8aef3	0.11361494
228	0xbe56a5ca	-0.20961681
229	0x3e41c9d7	0.18924652
230	0x3e238615	0.15969117
231	0xbe8d591a	-0.27607042
232	0x3d4504b1	0.048100177
233	0x3e9db144	0.30799305
234	0xbc4dc537	-0.012559227
235	0x3cfbbd8c	0.030730031
236	0x3e78c704	0.24294668
237	0xbdd0f9a4	-0.10203865
238	0xbe841c34	-0.25802767
239	0x3e41bd40	0.1891985
240	0x3db5d184	0.088778526
241	0x3e5270c4	0.20550829
242	0x3d15fc8c	0.0366178
243	0xbdbb4e58	-0.09145802
244	0x3db73df6	0.08947365
245	0xbdda596e	-0.106615886
246	0x3e7e1aff	0.24814986
247	0x3d75f748	0.06005028
248	0xbd0154ce	-0.031575017
249	0x3c6e0320	0.014527112
250	0x3e4a4ebb	0.19756596
251	0x3e830a9d	0.25594035
252	0xbe9bca02	-0.30427557
253	0xbe3c60c5	-0.1839629
254	0x3e685297	0.22687756
255	0xbe680feb	-0.22662322
