results/checkpoints/dynamic_gnn_full_backup.pt (torch, 518853 bytes, 18 tensors)

node_embed.weight f4 [64, 46]
-0.1283457 -0.13875924 -0.18347481 -0.042325646 -0.035889465 -0.07255701 -0.0055033807 0.03568228
0.054007836 -0.050770584 0.11766783 -0.1279334 -0.14686511 0.010542691 0.060732547 0.06255569
-0.073350504 -0.056009714 -0.1485571 -0.090273045 -0.07720212 0.026900003 0.0075090975 0.08482027
-0.117212 -0.052956387 0.16752207 0.055619355 -0.12657039 -0.1250178 0.063223824 -0.0017661975
-0.003941915 0.10723065 -0.14047581 -0.055093765 -0.048035618 -0.1321606 -0.12471483 -0.017151251
0.11759509 -0.15727347 -0.11817064 -0.14258006 0.061818175 0.15180229 -0.115627095 -0.04785793
-0.070751324 0.15124324 -0.0011083195 0.15491065 0.12678665 -0.18986222 0.09374698 -0.07673246
-0.019895965 0.0771751 -0.050600916 0.13748881 0.03885642 0.08628242 -0.031565495 -0.0014250003
-0.05541097 0.056717936 0.060584888 -0.069979146 -0.014881596 -0.042987056 0.041797783 -0.0902862
0.0072795907 -0.025974674 0.12841621 -0.053080495 0.1461658 -0.016238274 -0.13691369 -0.05886662
-0.14521505 -0.072688535 -0.067858934 -0.028745404 0.060289543 -0.057026006 0.053897295 -0.022821654
0.09360332 -0.099407345 0.12213683 -0.060291894 0.16036262 -0.00062786724 -0.086836256 0.13400854
-0.069378294 0.072203964 -0.008060117 0.09195515 -0.15226193 0.0722993 0.050748684 0.13028985
0.09645715 0.0017990768 0.05876934 -0.047619093 0.11873964 0.13987793 0.06522936 -0.092734516
0.09448397 -0.054220654 -0.1404063 -0.03840381 0.12492898 0.07661982 -0.0411112 0.11085185
0.011798874 -0.09455434 -0.046996474 -0.100903176 -0.010089659 -0.11650265 -0.08871875 -0.046949223
0.0027576147 -0.05945919 0.056724973 0.094200246 0.12076043 0.024791451 0.073510975 -0.054528423
0.11656599 -0.14039625 -0.068965614 -0.024284633 -0.15832238 0.044486053 -0.074494235 0.006744595
-0.1061202 -0.14672355 -0.008299083 -0.038097776 -0.10422529 -0.024861833 0.14054722 0.0380539
0.059884008 -0.13157985 -0.12397669 0.034980707 0.15463302 -0.1046757 0.0024580841 0.044488333
-0.1126541 0.0845595 0.094793126 0.083179966 0.029687146 -0.085004956 -0.08147815 0.0407954
0.04456789 0.06508177 -0.13207835 0.11083826 0.06634974 0.08431387 0.15645356 0.15309845
-0.03019666 0.14351231 -0.019941835 -0.058652963 0.15192181 -0.033494405 -0.0732412 0.110176004
-0.050130986 -0.08433004 -0.183084 -0.11228385 0.021536032 -0.11684971 -0.14482142 -0.17279328
0.051036816 -0.090341516 -0.07182565 -0.00089208153 0.053685427 -0.017000452 -0.099658206 0.08364049
-0.024008974 0.13980286 -0.06714579 0.14258476 0.010352316 0.014864374 0.07637732 0.026850134
-0.121500164 0.07789102 -0.092461005 -0.042295504 0.04389593 0.15778121 -0.036894638 -0.043718293
-0.033076275 -0.03491842 -0.07313169 0.13296287 0.12651044 -0.051754743 0.092293255 -0.05092781
-0.058203973 0.11576298 0.041431412 0.04107771 0.15812837 -0.1102614 0.027743518 -0.011085548
-0.17251706 0.09477309 -0.12267182 -0.09674191 0.053222567 -0.05232583 -0.08739371 -0.06397043
-0.096941315 0.07296943 0.014805734 -0.11781398 0.079713635 0.055487618 0.131017 -0.08561658
0.095101625 0.09261272 -0.099692605 -0.022207435 0.13286251 -0.01590249 -0.016648313 -0.09333686
00000000: 0e6d 03be e716 0ebe d2e0 3bbe a85d 2dbd
00000010: d500 13bd c598 94bd b455 b4bb 9527 123d
00000020: 5237 5d3d d1f4 4fbd d5fb f03d f900 03be
00000030: cf63 16be 40bb 2c3c b1c2 783d 331d 803d
00000040: ca38 96bd 716a 65bd 5a1f 18be 13e1 b8bd
00000050: 251c 9ebd 655d dc3c e00e f63b 40b6 ad3d
00000060: d80c f0bd cce8 58bd e88a 2b3e 1fd1 633d
00000070: ab9b 01be ab04 00be 7e7b 813d c17f e7ba
00000080: 2e2b 81bb be9b db3d e4d8 0fbe 00aa 61bd
00000090: ffc0 44bd 1c55 07be 7d6a ffbd c880 8cbc
000000a0: b2d5 f03d 4c0c 21be 7303 f2bd 8200 12be
000000b0: 0e35 7d3d 0f72 1b3e e6cd ecbd ad06 44bd
000000c0: 12e6 90bd 82df 1a3e 0845 91ba e6a0 1e3e
000000d0: 5cd4 013e 3e6b 42be 6bfe bf3d e825 9dbd
000000e0: ddfc a2bc fb0d 9e3d e842 4fbd dec9 0c3e
000000f0: e927 1f3d d6b4 b03d d24a 01bd 13c7 baba
00000100: 9df6 62bd 1151 683d dc27 783d 3a51 8fbd
00000110: f0d1 73bc 3213 30bd 2734 2b3d f9e7 b8bd
00000120: a289 ee3b d7c8 d4bc 8a7f 033e ef6a 59bd
00000130: 7dac 153e 2106 85bc 1a33 0cbe 201e 71bd
00000140: 41b3 14be badd 94bd a0f9 8abd 7b7b ebbc
00000150: 2bf2 763d 1a94 69bd 69c3 5c3d 7af4 babc
00000160: 19b3 bf3d 1496 cbbd e022 fa3d a2f4 76bd
00000170: 1936 243e 7597 24ba 35d7 b1bd 8939 093e
00000180: 3516 8ebd acdf 933d 950e 04bc fb52 bc3d
00000190: 8dea 1bbe a811 943d dadd 4f3d b46a 053e
000001a0: 548b c53d 00cf eb3a 1fb8 703d 3d0c 43bd
000001b0: c52d f33d 293c 0f3e f896 853d 98eb bdbd
000001c0: d080 c13d 7a16 5ebd abc6 0fbe 504d 1dbd
000001d0: c4da ff3d daea 9c3d 3864 28bd 4b06 e33d
000001e0: 1050 413c b5a5 c1bd 607f 40bd 53a6 cebd
000001f0: 194f 25bc f198 eebd 2db2 b5bd d44d 40bd
00000200: 19b9 343b 7b8b 73bd 7258 683d 0fec c03d
00000210: 3f51 f73d 7117 cb3c ec8c 963d 3259 5fbd
00000220: 26ba ee3d 09c4 0fbe d83d 8dbd 91f0 c6bc
00000230: 431f 22be 0237 363d 6f90 98bd c301 dd3b
00000240: 8c55 d9bd b33e 16be e1f8 07bc 6a0c 1cbd
00000250: 1274 d5bd 0bab cbbc 9ceb 0f3e 68de 1b3d
00000260: ef48 753d debc 06be 7ee7 fdbd ee47 0f3d
00000270: 1e58 1e3e 3760 d6bd cf17 213b 6639 363d
00000280: 31b7 e6bd 882d ad3d e622 c23d 425a aa3d
00000290: 7532 f33c 1417 aebd 04de a6bd 1419 273d
000002a0: d28c 363d 9749 853d 8c3f 07be 2bff e23d
000002b0: 5fe2 873d c0ac ac3d 5d35 203e d7c5 1c3e
000002c0: fc5e f7bc e4f4 123e 0f5d a3bc 173e 70bd
000002d0: 6491 1b3e 6e31 09bd 7bff 95bd f5a3 e13d
000002e0: 2656 4dbd 3ab5 acbd 5f7a 3bbe 13f5 e5bd
000002f0: 556c b03c e74e efbd 114c 14be b9f0 30be
00000300: fb0b 513d f904 b9bd 5419 93bd 94da 69ba
00000310: 40e5 5b3d 8844 8bbc 9a19 ccbd b54b ab3d
00000320: 78ae c4bc 7b28 0f3e bb83 89bd bd01 123e
00000330: c39c 293c b489 733c b66b 9c3d d0f4 db3c
00000340: 14d5 f8bd 5485 9f3d 325c bdbd 0d3e 2dbd
00000350: 38cc 333d 6691 213e d51e 17bd f411 33bd
00000360: fd7a 07bd 9e06 0fbd 11c6 95bd 6b27 083e
00000370: f48b 013e c8fc 53bd 3f04 bd3d ae99 50bd
00000380: 4a67 6ebd 2415 ed3d fcb3 293d 1a41 283d
00000390: 67ec 213e bbd0 e1bd 6046 e33c 29a0 35bc
000003a0: 50a8 30be 6518 c23d 5d3b fbbd 9f20 c6bd
000003b0: e8ff 593d 9c53 56bd 79fb b2bd ee02 83bd
000003c0: 2b89 c6bd ff70 953d c093 723c 7548 f1bd
000003d0: e740 a33d fc46 633d 5229 063e bf57 afbd
000003e0: a4c4 c23d bdab bd3d a32b ccbd 5eec b5bc
000003f0: 1c0d 083e f045 82bc 0b62 88bc 6527 bfbd

node_embed.bias f4 [64]
-0.012928825 -0.04685678 -0.1506951 -0.11734376 -0.05840527 0.025274834 0.1508577 0.15209524
-0.14277805 0.06574182 -0.051699053 -0.07799051 -0.19230215 -0.06761757 0.070778474 0.014033298
-0.07790132 0.017451547 0.055717763 -0.022636011 0.064885244 0.14410348 0.0737244 0.13953514
-0.17167817 0.044738013 0.08352695 0.19049859 0.13185368 0.13513133 -0.05030748 -0.027615761
-0.037315622 -0.17647691 -0.11555186 0.097115315 -0.13346782 -0.014128343 -0.12321456 0.08697087
-0.10655218 -0.07020523 0.09751129 -0.06790137 0.16006146 -0.12109521 -0.11323592 -0.012561842
0.1448953 -0.13392963 -0.04418741 -0.06895092 0.0072510974 -0.14427233 0.060615793 0.13862717
0.029409098 -0.13551427 -0.10705956 0.16419014 0.1870258 -0.044448815 0.057256088 -0.03238463
00000000: 6cd3 53bc e5ec 3fbd d14f 1abe ed51 f0bd
00000010: 5d3a 6fbd 2b0d cf3c 717a 1a3e dbbe 1b3e
00000020: 6934 12be a6a3 863d 63c2 53bd 7db9 9fbd
00000030: dbea 44be 157b 8abd 4ef4 903d ebeb 653c
00000040: ba8a 9fbd 8cf6 8e3c 4f38 643d 286f b9bc
00000050: 8ee2 843d dd8f 133e d1fc 963d 4de2 0e3e
00000060: 67cc 2fbe 353f 373d 2d10 ab3d 1012 433e
00000070: a704 073e de5f 0a3e 370f 4ebd 733a e2bc
00000080: 44d8 18bd 5db6 34be 74a6 ecbd 65e4 c63d
00000090: caab 08be 917a 67bc ea57 fcbd c91d b23d
000000a0: 0838 dabd c2c7 8fbd 00b4 c73d e00f 8bbd
000000b0: 27e7 233e c400 f8bd 3ce8 e7bd 2fd0 4dbc
000000c0: 6f5f 143e d924 09be dcfd 34bd 2436 8dbd
000000d0: 9d9a ed3b 20bc 13be 4448 783d 48f4 0d3e
000000e0: 59eb f03c 41c4 0abe 0b42 dbbd 7621 283e
000000f0: b183 3f3e f60f 36bd 5c85 6a3d bfa5 04bd

gat_layers.0.att_src f4 [1, 4, 64]
-0.23774621 0.106361166 0.050057545 0.29705113 -0.026580816 -0.025515068 -0.16908394 0.18257819
-0.13525705 -0.2853252 0.0029254432 0.2119093 -0.22026283 -0.13793102 -0.24274676 -0.036790833
0.2907205 0.20342766 -0.03375736 -0.19177105 0.06831319 -0.24681315 -0.25638548 -0.2539842
0.11579897 0.2124804 -0.10619348 -0.23248358 -0.08147302 -0.28347468 0.101864524 0.0031223735
-0.13364144 0.07193635 -0.16168568 0.09375083 0.048124015 -0.02253307 -0.20733528 -0.2347735
0.09847783 -0.19731346 -0.118682 0.15212874 -0.25985798 -0.16792099 0.1002847 -0.08110644
0.2377608 -0.29551542 0.066142745 -0.15016717 -0.13928206 -0.27353546 -0.22590464 0.14069366
-0.106608845 -0.02586952 -0.12658483 0.23000163 -0.050633278 0.22090456 0.025419895 -0.027693138
0.10191617 -0.068522684 0.070894994 -0.24324958 0.13013022 -0.16184862 0.020968756 -0.27367225
0.092048265 0.23091188 0.043063067 0.1154701 -0.22685838 -0.22788781 -0.16501604 0.05948966
-0.037090942 -0.2802716 0.1622253 -0.31651178 -0.12710878 -0.0010940257 -0.053028475 0.039855216
-0.12753287 0.21518388 0.22078198 0.11298695 0.29817417 -0.3152156 -0.10597761 -0.0173241
-0.19394784 0.2565355 0.093298785 0.19150251 -0.11421831 0.097236425 0.081539586 0.029085036
0.06835272 0.03297604 -0.1991566 -0.29156145 -0.18829232 -0.26033035 0.26251173 -0.06140462
-0.27997398 -0.06818828 -0.12293668 0.017929824 0.268517 0.16138707 -0.24285623 -0.003121607
0.2950097 -0.07643391 0.21247213 -0.1201468 0.14251699 0.2748752 -0.20866841 -0.0647062
0.002221661 -0.084716134 0.061373767 -0.1117052 0.12542851 0.1697247 0.1897836 -0.02955316
0.17225765 -0.26862592 -0.0463787 0.009586321 -0.27093744 -0.15240669 -0.23165078 0.11248682
0.08092239 -0.23951538 0.20953272 0.07934478 -0.14239968 0.07061757 -0.14253843 0.30779076
-0.25710785 -0.3060532 0.08174814 0.21515952 -0.15583377 0.25039205 -0.04822159 -0.020369569
-0.07798174 0.003205054 0.15526846 -0.15664743 0.07649336 0.07447801 -0.094093256 -0.146378
-0.20025977 -0.0551526 -0.15194161 -0.11135293 0.22603253 -0.254912 0.15854658 0.08308799
0.28310072 0.3175877 0.24900897 -0.12586407 -0.09099572 -0.00032426076 -0.08755629 -0.17189316
-0.13827153 0.21849973 0.1829868 -0.22179657 0.17236972 0.28526002 0.27533057 -0.054915067
-0.14963464 -0.03907347 -0.21627194 0.15361506 0.20250548 -0.26375124 -0.24082579 -0.21648836
-0.14583999 -0.20574516 -0.1229544 0.14675872 -0.21736999 0.05578119 0.2065939 0.13191497
-0.021078326 -0.23700145 -0.20574078 -0.101294406 -0.0478162 0.25581774 -0.24360836 0.06274453
0.26441145 -0.12120398 0.11077016 0.08972416 0.06519061 0.2469519 0.09357232 0.26078075
0.29893216 -0.118141614 0.29487482 0.23840149 0.06971916 0.0034757177 0.18043521 -0.27756968
0.015807968 0.13844112 -0.27943772 0.20861594 -0.056959987 -0.21677776 0.101773895 -0.13750069
-0.30459848 -0.28135878 -0.048712958 -0.13787916 0.06459652 -0.18941037 -0.20190558 -0.21131228
-0.04052622 0.04630356 0.061163414 0.0007791618 -0.0012790387 -0.14281303 0.19167054 -0.06604327
00000000: be73 73be e2d3 d93d 2409 4d3d 1617 983e
00000010: 03c0 d9bc fa04 d1bc 5724 2dbe c7f5 3a3e
00000020: d380 0abe 2516 92be cbb8 3f3b c0fe 583e
00000030: 948c 61be ca3d 0dbe 9b92 78be fcb1 16bd
00000040: 51d9 943e 574f 503e 2845 0abd a15f 44be
00000050: c9e7 8b3d 96bc 7cbe f544 83be 380a 82be
00000060: 0328 ed3d 7694 593e f87b d9bd 2d10 6ebe
00000070: 54db a6bd 9823 91be 599e d03d bca0 4c3b
00000080: 4dd9 08be 5d53 933d ee90 25be 6f00 c03d
00000090: b01d 453d 4697 b8bc b34f 54be 7768 70be
000000a0: bfae c93d 8a0c 4abe 8c0f f3bd a3c7 1b3e
000000b0: 1b0c 85be 7bf3 2bbe 1162 cd3d 221b a6bd
000000c0: 9177 733e cc4d 97be d975 873d 6cc5 19be
000000d0: f59f 0ebe d70c 8cbe 8c53 67be 0012 103e
000000e0: bd55 dabd 51ec d3bc 749f 01be 8c85 6b3e
000000f0: d764 4fbd ce34 623e 623d d03c b8dc e2bc
00000100: 6db9 d03d 9f55 8cbd 6531 913d 6b16 79be
00000110: db40 053e a5bb 25be abc6 ab3c c51e 8cbe
00000120: cd83 bc3d 2a74 6c3e e662 303d 967b ec3d
00000130: 904d 68be 6c5b 69be f7f9 28be 6eab 733d
00000140: acec 17bd c27f 8fbe 641e 263e d50d a2be
00000150: ce28 02be 6965 8fba 6334 59bd 393f 233d
00000160: fa97 02be 2a59 5c3e ac14 623e b465 e73d
00000170: 49aa 983e f063 a1be ca0a d9bd 45eb 8dbc
00000180: 439a 46be 9f58 833e 6f13 bf3d 3c19 443e
00000190: 4aeb e9bd e423 c73d 3afe a63d be43 ee3c
000001a0: 83fc 8b3d e211 073d b5ef 4bbe 8b47 95be
000001b0: b4cf 40be 054a 85be f067 863e 6983 7bbd
000001c0: c058 8fbe 4ca6 8bbd 3ac6 fbbd 91e1 923c
000001d0: 0f7b 893e a742 253e 4eaf 78be e093 4cbb
000001e0: 830b 973e 6289 9cbd 4b92 593e 870f f6bd
000001f0: f9ef 113e 71bc 8c3e 2cad 55be af84 84bd
00000200: 4999 113b a77f adbd 0f63 7b3d b2c5 e4bd
00000210: 5570 003e 50cc 2d3e a256 423e 7819 f2bc
00000220: 4f64 303e 5689 89be 97f7 3dbd f20f 1d3c
00000230: 50b8 8abe 8010 1cbe dd35 6dbe 7d5f e63d
00000240: a3ba a53d 8543 75be bf8f 563e 847f a23d
00000250: 39d1 11be f29f 903d 98f5 11be c096 9d3e
00000260: a4a3 83be 01b3 9cbe 926b a73d c752 5c3e
00000270: e392 1fbe 6333 803e 0184 45bd 15de a6bc
00000280: e4b4 9fbd e20b 523b b2fe 1e3e 2f68 20be
00000290: 8da8 9c3d ed87 983d f7b3 c0bd 1de4 15be
000002a0: e610 4dbe b1e7 61bd 9596 1bbe 010d e4bd
000002b0: 1275 673e d383 82be 095a 223e 092a aa3d
000002c0: 94f2 903e db9a a23e 35fc 7e3e 83e2 00be
000002d0: f75b babd 8b01 aab9 b650 b3bd c304 30be
000002e0: 0d97 0dbe 65be 5f3e e460 3b3e a41e 63be
000002f0: b081 303e 9a0d 923e 21f8 8c3e 9fee 60bd
00000300: d339 19be 810b 20bd 6476 5dbe 444d 1d3e
00000310: 995d 4f3e 670a 87be 099b 76be 20af 5dbe
00000320: 1457 15be dcae 52be 84cf fbbd eb47 163e
00000330: 3d96 5ebe d17a 643d 5a8d 533e b814 073e
00000340: 74ac acbc 82b0 72be b6ad 52be 7173 cfbd
00000350: ebda 43bd 8bfa 823e 7874 79be 3480 803d
00000360: f060 873e cb39 f8bd 77db e23d 4dc1 b73d
00000370: a882 853d f5e0 7c3e d8a2 bf3d 0e85 853e
00000380: a30d 993e 3bf4 f1bd d5f9 963e 851f 743e
00000390: ebc8 8e3d dec8 633b 02c4 383e 9d1d 8ebe
000003a0: b67f 813c 82c3 0d3e 7612 8fbe 6b9f 553e
000003b0: e04e 69bd fdfa 5dbe d56e d03d fbcc 0cbe
000003c0: 55f4 9bbe 420e 90be 3d87 47bd 3230 0dbe
000003d0: 2e4b 843d cbf4 41be 56c0 4ebe 3f62 58be
000003e0: d2fe 25bd cda8 3d3d 7d86 7a3d aa40 4c3a
000003f0: 6ba5 a7ba 943d 12be 4845 443e b241 87bd

gat_layers.0.att_dst f4 [1, 4, 64]
0.07788544 -0.21924144 0.024104308 0.15886377 -0.1532559 -0.16446203 0.19499223 0.12081941
-0.06286544 -0.14001444 0.25028357 -0.27987596 -0.16708577 0.068710335 -0.080121905 -0.24723189
0.025650848 0.060290553 0.090644024 0.24212721 0.060301922 0.074451074 -0.08918828 -0.23717324
0.11000397 0.1606941 -0.16350482 0.2047291 0.26796675 -0.095606126 -0.06536165 -0.20335226
-0.21106458 0.30405673 -0.116282016 -0.21474876 -0.08261 0.06402301 -0.103322275 0.007368311
0.22965571 0.094703585 -0.17409955 0.20553894 -0.14823355 -0.25851482 -0.076175764 -0.19922867
-0.083309226 -0.16558029 0.050772436 -0.0124921035 0.24827811 0.27986956 0.1497467 0.029341659
-0.2836149 -0.27713543 0.008866627 -0.25537986 0.04401134 -0.1934999 0.251211 0.13947047
0.20016903 0.072317116 -0.106983155 -0.29403454 -0.16043562 0.17487098 -0.24423265 0.20381369
-0.12717687 0.048427343 -0.15555611 -0.018633908 -0.15821686 0.2754347 -0.09226686 -0.28693223
-0.022152876 0.05453918 -0.31293568 0.09445921 0.21118808 -0.17530525 -0.15497562 0.22466566
0.1590367 0.05942596 -0.10513161 -0.13717696 0.18464217 0.13752224 0.095824435 0.041798912
-0.13061984 0.021982865 -0.12962711 0.033537783 -0.05396948 -0.2709611 -0.15449902 -0.17265125
0.28966883 0.29858714 -0.040722772 0.24152617 -0.20064181 -0.030667655 0.10657701 -0.19220534
0.1677852 -0.29648808 0.06524852 0.098167956 -0.20636566 -0.30822885 -0.1722768 0.015285773
0.18222395 -0.12417558 0.08939212 -0.036222603 0.13376485 0.19806385 0.1727523 -0.17632118
-0.030670132 0.088218644 0.06292826 0.1289738 -0.22733814 -0.11616288 -0.083447695 0.23832618
-0.2773141 -0.23428747 0.16509224 -0.090780795 -0.19397412 0.18390435 0.15662959 0.14631718
0.181203 -0.058047324 0.06583412 0.11067805 0.22994046 0.018873254 0.022130288 0.19997473
-0.2882282 -0.093212515 0.12243319 0.27768186 -0.065808095 0.18728667 -0.19340976 0.23694417
0.22625919 -0.08470462 0.08235735 0.0027582876 0.036767535 0.18495528 -0.17717902 0.020261297
-0.14031932 -0.077655494 0.18423502 -0.20926037 0.2617227 -0.18469878 0.008304008 0.16506527
0.2692509 -0.10041451 0.030631393 -0.1170423 0.19380237 -0.06356789 0.19697493 -0.25979826
0.14329968 -0.24415788 -0.27546504 -0.2730647 -0.0046923654 -0.27245462 0.28645444 0.12679489
-0.27661443 0.246034 -0.16358182 0.1554912 -0.24280085 -0.14122163 0.27404398 0.17126758
-0.0788945 0.13596813 -0.28382412 -0.12920469 0.116966106 -0.28127983 -0.22724034 0.14369223
-0.1047512 -0.18655665 -0.2576136 -0.20441625 -0.11838421 0.21824376 -0.22188535 -0.11981391
-0.23867379 -0.10056315 -0.18489774 0.088002816 0.30315962 -0.14495657 -0.2612433 0.2569682
-0.19391118 0.2312807 0.09967159 0.16433868 -0.122810066 -0.20941682 -0.27565554 0.03357876
0.22878356 -0.18660899 0.19310015 -0.19317184 -0.25385338 0.1353861 -0.13860531 0.09817118
0.05969933 0.28009382 -0.18797177 0.27286926 0.023034884 -0.19702306 0.18756177 -0.10771873
0.17532195 0.091214776 -0.25978372 -0.18715084 0.21723573 -0.2920356 0.04090929 0.23152141
00000000: 6782 9f3d d480 60be 6676 c53c 2fad 223e
00000010: 1def 1cbe bc68 28be 0bac 473e 2b70 f73d
00000020: 99bf 80bd f25f 0fbe 2b25 803e e74b 8fbe
00000030: 8818 2bbe 01b8 8c3d f416 a4bd 5b2a 7dbe
00000040: ba21 d23c 3af3 763d 93a3 b93d 32f0 773e
00000050: 26ff 763d ce79 983d 58a8 b6bd 8bdd 72be
00000060: c349 e13d ff8c 243e cf6d 27be 81a4 513e
00000070: f032 893e 25cd c3bd 54dc 85bd 933b 50be
00000080: 5021 58be 53ad 9b3e 4425 eebd 19e7 5bbe
00000090: 6f2f a9bd 7f1e 833d a19a d3bd df71 f13b
000000a0: de2a 6b3e f4f3 c13d 2747 32be cd78 523e
000000b0: 89ca 17be 0e5c 84be 0a02 9cbd 9a02 4cbe
000000c0: 079e aabd e18d 29be c2f6 4f3d aeab 4cbc
000000d0: 9e3c 7e3e 104b 8f3e 3357 193e eb5d f03c
000000e0: f935 91be b2e4 8dbe 5445 113c 26c1 82be
000000f0: 3c45 343d d624 46be ba9e 803e 59d1 0e3e
00000100: 1cf9 4c3e ff1a 943d fc19 dbbd b28b 96be
00000110: 3c49 24be 6111 333e 2018 7abe 89b4 503e
00000120: a73a 02be c05b 463d 1a4a 1fbe 23a6 98bc
00000130: 9a03 22be c705 8d3e 68f6 bcbd c8e8 92be
00000140: f379 b5bc 7a64 5f3d 1b39 a0be d573 c13d
00000150: b041 583e 3883 33be eeb1 1ebe c10e 663e
00000160: 84da 223e a368 733d 3e4f d7bd 1e78 0cbe
00000170: d612 3d3e a1d2 0c3e 9a3f c43d 5635 2b3d
00000180: 35c1 05be 6915 b43c f8bc 04be ea5e 093d
00000190: 1a0f 5dbd 6abb 8abe fe34 1ebe 7dcb 30be
000001a0: 794f 943e 6ae0 983e eccc 26bd a352 773e
000001b0: 0c75 4dbe bc3a fbbc 0c45 da3d 7ad1 44be
000001c0: e2cf 2b3e 49cd 97be 04a1 853d 480c c93d
000001d0: 8551 53be 2cd0 9dbe 5469 30be 2e71 7a3c
000001e0: ea98 3a3e c44f febd 3713 b73d 275e 14bd
000001f0: a7f9 083e 40d1 4a3e fbe5 303e 8a8d 34be
00000200: ee3f fbbc faab b43d 88e0 803d b511 043e
00000210: 54cb 68be cee6 edbd a0e6 aabd c70b 743e
00000220: 1dfc 8dbe 0ee9 6fbe f10d 293e 48eb b9bd
00000230: 27a1 46be 6c51 3c3e 8263 203e 2cd4 153e
00000240: 478d 393e 08c3 6dbd 0ad4 863d 2cab e23d
00000250: 8375 6b3e 159c 9a3c 944a b53c 2dc6 4c3e
00000260: a692 93be 34e6 bebd 41be fa3d 512c 8e3e
00000270: 65c6 86bd 14c8 3f3e 350d 46be 7ea1 723e
00000280: 7db0 673e 9e79 adbd f8aa a83d 63c4 343b
00000290: 8e99 163d eb64 3d3e 6b6e 35be 05fb a53c
000002a0: deaf 0fbe d809 9fbd 1ba8 3c3e 5a48 56be
000002b0: 8500 863e ad21 3dbe 890d 083c df06 293e
000002c0: 41db 893e 1fa6 cdbd b0ee fa3c e0b3 efbd
000002d0: 2174 463e e22f 82bd ccb3 493e 4704 85be
000002e0: 27bd 123e 8604 7abe c109 8dbe 23cf 8bbe
000002f0: 6ac2 99bb 2c7f 8bbe 28aa 923e 85d6 013e
00000300: 68a0 8dbe 56f0 7b3e fe81 27be 1639 1f3e
00000310: c9a0 78be 679c 10be 7e4f 8c3e c560 2f3e
00000320: 7193 a1bd 3b3b 0b3e 6551 91be 3c4e 04be
00000330: ed8b ef3d e903 90be b1b1 68be 0e24 133e
00000340: cc87 d6bd b508 3fbe eee5 83be 7e52 51be
00000350: 6c73 f2bd 4b7b 5f3e ea35 63be ff60 f5bd
00000360: e766 74be 0ef4 cdbd d555 3dbe d23a b43d
00000370: bd37 9b3e 7f6f 14be afc1 85be 5691 833e
00000380: a790 46be d9d4 6c3e 9e20 cc3d 6648 283e
00000390: d883 fbbd 5d71 56be b922 8dbe e289 093d
000003a0: 3d46 6a3e 6d16 3fbe 0cbc 453e d7ce 45be
000003b0: 12f9 81be a7a2 0a3e 8dee 0dbe f90d c93d
000003c0: 4987 743d 7568 8f3e ac7b 40be 85b5 8b3e
000003d0: a7b3 bc3c 6ac0 49be 3110 403e a39b dcbd
000003e0: 9987 333e d0ce ba3d 5f02 85be 78a4 3fbe
000003f0: 0b73 5e3e b185 95be 8090 273d f313 6d3e

gat_layers.0.bias f4 [256]
0.015847197 -0.018360669 -0.00082778913 -0.0051848595 0.0019872314 -0.024623752 -0.019058935 -0.019484669
-0.003822335 0.028718866 -0.010383519 -0.04532668 -0.0029973292 0.0286594 -0.013894055 0.034836933
0.044728618 0.047136206 0.037010998 0.018257774 0.03649007 -0.008823821 0.009253153 0.047912102
-0.019449722 -0.009655052 0.014057913 0.016362114 -0.010083064 0.021550825 0.041271105 0.038580447
-0.008497535 0.042155873 0.030832238 0.034915436 0.030846251 0.034858957 0.045981172 0.018293222
-0.011693828 -0.0014051339 0.021639729 -0.018587233 0.037850257 0.020530805 0.027702525 0.048364602
0.03147583 -0.012781604 0.0063303867 0.020329474 0.0024592718 -0.027321847 0.031583127 0.0038002878
-0.016904103 0.029631587 0.004143228 -0.019391667 0.0020426349 -0.0033327788 0.016390532 0.033214495
-0.004760625 0.0072197574 0.049375676 0.01524019 0.0025493347 0.04932301 0.03293435 -0.0032033655
0.033839613 -0.009131629 -0.0065694354 0.04023562 0.050771065 0.047398034 0.04648689 0.036944296
0.027480356 0.0297791 0.0046643023 0.038728748 0.0266837 0.03580627 0.04258021 0.00019031516
0.0045560477 0.0075941775 0.039528463 0.023794943 0.0143001415 0.001225707 0.04689555 0.02726996
-0.00970323 0.01596022 0.043780267 0.029163485 -0.0011267156 0.047897473 0.0043711583 0.039459873
0.023091627 0.036462903 -0.011240327 -0.011584288 0.017623378 0.0022017937 -0.022026172 0.017601755
0.025931837 0.014570131 -0.0043124137 0.013283329 -0.0008537016 -0.0122349085 0.012856028 -0.005013381
0.03241215 0.016311128 0.027120706 0.03414245 0.044401914 -0.010743138 0.010355547 0.025410797
0.038397834 -0.00017425758 -0.022791192 -0.02406919 0.026897868 0.034072116 0.03457684 -0.012812056
-0.016906193 0.03063436 -0.02519978 -0.001259913 0.024213415 0.0073553985 0.02951801 0.042383466
0.031175565 0.048536927 0.04391995 -0.004890907 0.011723832 0.032327347 0.017894344 0.007857427
0.017601782 -0.012534358 -0.007965921 0.04502219 0.038096096 0.013215925 0.0013272897 0.025353394
0.039162423 0.038354848 -0.020871794 0.021113673 -0.015769526 0.02119793 0.027714059 -0.021388914
0.053793967 -0.002935747 -0.006026099 -0.033160284 0.035531398 0.0028903075 0.03973894 0.0046665147
0.012869924 0.0053609475 0.03602853 -0.007000383 0.002860323 0.027936116 0.004206317 0.011093583
0.035212807 -0.014509696 0.037700366 0.035910316 0.028821418 0.034370936 0.046802085 0.033745166
-0.012522261 0.04110945 0.049946453 0.026723964 0.011268816 0.03763941 -0.0052062254 0.008325903
0.033215456 -0.01943429 0.0057817595 -0.00977326 0.038739417 0.021605272 -0.0025940533 0.0048742057
0.041919887 -0.002026522 0.008284516 0.025683451 0.025484063 0.032970935 0.029736437 -0.008796334
-0.010343597 0.030201484 -0.015503071 -0.004958547 -0.0053543504 -0.0014379205 0.011719782 -0.0035455464
0.024641098 -0.03567905 0.031616103 -0.012045569 0.026033394 0.047716375 0.029639188 0.033522747
0.027341465 0.013284991 -0.018173687 0.045072526 0.044423882 0.034063984 -0.025666943 0.0017914125
-0.018934969 0.008475993 0.038645968 0.015768724 -0.0038611046 0.047454666 0.035358913 -0.016763749
0.03673405 0.050863024 0.03689759 0.009224787 0.037594356 -0.010166488 0.0015881958 0.036058728
00000000: fbd1 813c 1d69 96bc fdff 58ba c1e5 a9bb
00000010: 363c 023b c0b7 c9bc 7c21 9cbc 509e 9fbc
00000020: 2480 7abb d443 eb3c a31f 2abc 78a8 39bd
00000030: d76e 44bb 1ec7 ea3c e4a3 63bc 2cb1 0e3d
00000040: 5b35 373d e511 413d d898 173d 5491 953c
00000050: 9d76 153d ca91 10bc 899a 173c 7b3f 443d
00000060: 0655 9fbc 3930 1ebc 2953 663c d709 863c
00000070: 7033 25bc 5b8b b03c e40b 293d 8806 1e3d
00000080: 3f39 0bbc a3ab 2c3d e493 fc3c 7d03 0f3d
00000090: 47b1 fc3c 44c8 0e3d c156 3c3d abdb 953c
000000a0: 7897 3fbc 782c b8ba cd45 b13c 4144 98bc
000000b0: df08 1b3d 3830 a83c 68f0 e23c f619 463d
000000c0: cdec 003d ef69 51bc 226f cf3b ff89 a63c
000000d0: bc2b 213b 11d2 dfbc 4f5d 013d 400e 793b
000000e0: 797a 8abc f1bd f23c eac3 873b 46db 9ebc
000000f0: badd 053b c06a 5abb 7045 863c ec0b 083d
00000100: 04ff 9bbb b793 ec3b 263e 4a3d fdb1 793c
00000110: bd12 273b ed06 4a3d 2be6 063d 8eef 51bb
00000120: 689b 0a3d d49c 15bc 6b44 d7bb 1bce 243d
00000130: 52f5 4f3d 7124 423d 0a69 3e3d e752 173d
00000140: 7c1e e13c 4df3 f33c 01d7 983b 09a2 1e3d
00000150: c697 da3c 98a9 123d 9668 2e3d 568f 4739
00000160: e64a 953b 94d8 f83b 99e8 213d 9ded c23c
00000170: 244b 6a3c e7a7 a03a 8c15 403d 4065 df3c
00000180: 4cfa 1ebc 02bf 823c f052 333d 43e8 ee3c
00000190: 4dae 93ba 2430 443d ef3b 8f3b ada0 213d
000001a0: a72a bd3c 205a 153d 5929 38bc 07cc 3dbc
000001b0: e75e 903c f84b 103b 3b70 b4bc 8e31 903c
000001c0: 016f d43c 8fb7 6e3c 264f 8dbb 52a2 593c
000001d0: f2ca 5fba ed74 48bc 17a2 523c 4a47 a4bb
000001e0: 9ac2 043d ea9e 853c 3e2c de3c f4d8 0b3d
000001f0: c8de 353d fd03 30bc 50aa 293c 4e2a d03c
00000200: 0c47 1d3d eab8 36b9 98b4 babc c02c c5bc
00000210: eb58 dc3c 348f 0b3d 72a0 0d3d a8e9 51bc
00000220: db7e 8abc e9f4 fa3c c56f cebc aa23 a5ba
00000230: 365b c63c 8e05 f13b c1cf f13c 499a 2d3d
00000240: e663 ff3c a8ce 463d 68e5 333d e743 a0bb
00000250: 5115 403c ae69 043d 2997 923c 70bc 003c
00000260: 9d31 903c e85c 4dbc 7f83 02bc 3069 383d
00000270: a70a 1c3d 9b87 583c 74f8 ad3a ecb1 cf3c
00000280: c768 203d f919 1d3d 53fb aabc 95f6 ac3c
00000290: 182f 81bc 48a7 ad3c 9808 e33c ce37 afbc
000002a0: 1057 5c3d a965 40bb 9576 c5bb 14d3 07bd
000002b0: 5f89 113d 506b 3d3b 4cc5 223d 90e9 983b
000002c0: 60dc 523c e3aa af3b a792 133d 7863 e5bb
000002d0: 4274 3b3b 48da e43c 25d5 893b dcc1 353c
000002e0: 4e3b 103d 13ba 6dbc b36b 1a3d b216 133d
000002f0: e51a ec3c 8ac8 0c3d 8bb3 3f3d 5f38 0a3d
00000300: 2b2a 4dbc 6262 283d a794 4c3d 37ec da3c
00000310: d7a0 383c c82b 1a3d fc98 aabb 5e69 083c
00000320: ee0c 083d a934 9fbc ea74 bd3b 0620 20bc
00000330: 39ad 1e3d 8afd b03c fe00 2abb cdb7 9f3b
00000340: 30b4 2b3d 66cf 04bb c7bb 073c 1a66 d23c
00000350: f4c3 d03c 880c 073d d499 f33c 801e 10bc
00000360: 3178 29bc 1a69 f73c 9800 7ebc 4f7b a2bb
00000370: 8c73 afbb 9b78 bcba 5404 403c 665c 68bb
00000380: 21dc c93c 3224 12bd e37f 013d c75a 45bc
00000390: fc43 d53c 3f72 433d e2cd f23c 264f 093d
000003a0: 35fb df3c 4aa9 593c fce0 94bc f89d 383d
000003b0: d1f5 353d ad86 0b3d 7b43 d2bc d4cd ea3a
000003c0: 821d 9bbc e4de 0a3c 3c4b 1e3d 692d 813c
000003d0: 960a 7dbb d35f 423d 82d4 103d 2154 89bc
000003e0: 7176 163d bf55 503d ed21 173d 9023 173c
000003f0: 8afc 193d 5791 26bc 022b d03a 51b2 133d

gat_layers.0.lin.weight f4 [256, 64]
0.054710966 0.10626278 -0.06326536 -0.12942356 -0.05745448 0.09536353 0.053091496 -0.03869038
-0.11157181 -0.04579957 0.117613174 -0.001555647 0.08607133 0.011022754 0.11598205 0.11654957
-0.016664939 -0.05201166 -0.105398715 -0.03224101 -0.072563566 0.03511806 -0.0155104445 0.14721555
0.12002787 0.07815654 0.043056477 -0.038868375 -0.109233335 0.08121847 0.06736467 -0.00238252
-0.015357376 -0.13065474 0.021127317 0.05269941 -0.0146319205 0.08538142 -0.041254412 -0.13282156
0.09318628 0.13862444 0.083974704 -0.06599425 0.07331582 0.12657258 -0.07091786 -0.057988938
0.05579005 -0.036911454 -0.009794972 -0.01776014 0.044732258 -0.024239061 -0.14867 0.11535392
0.12855071 -0.023851115 -0.037464682 0.12453334 -0.10173033 0.08484806 0.0815359 0.037650514
0.070370644 0.002217025 0.06945543 0.130937 -0.12459486 0.10879613 -0.06719495 -0.0012303772
0.10950099 -0.02603355 0.10376 0.07071817 0.11504557 0.048418883 -0.011739328 -0.007875737
0.075128935 -0.018117866 0.08072009 -0.026177438 0.069551975 0.03961423 -0.043458074 -0.10677149
0.0042917933 -0.14593631 0.10292548 -0.13904876 -0.10873633 0.04214839 0.05343943 0.08598804
0.04026774 0.0068744835 0.008770805 0.08926949 0.06650439 -0.08215621 -0.0942082 -0.127877
0.11932692 -0.053616364 -0.041812714 0.05204019 0.022367405 0.068848446 -0.098428704 -0.087358154
0.07933427 0.12537786 0.075232945 -0.085763775 0.09908354 0.050035823 0.09911821 0.090198055
0.08388526 0.098193794 0.08087038 -0.073600344 -0.10230468 0.054953713 -0.09459956 0.04229328
-0.113059 0.057109382 0.1362125 -0.050259568 0.11548247 0.13443626 -0.14044364 0.045289982
0.099485174 0.09982588 0.010990496 0.052417263 -0.0032806217 -0.085778825 0.046463583 -0.062344104
0.088161096 -0.08442191 -0.0817678 0.04296101 0.0210087 0.031549543 -0.050877266 -0.02886879
0.14823471 0.020555565 0.0056745717 -0.012457265 -0.029995978 0.1075931 -0.110449225 -0.12877035
0.030927895 -0.1422731 -0.05939195 -0.13771242 -0.056568448 0.12665935 -0.03216466 0.025922392
-0.03234659 0.0148825 -0.098962516 -0.06758906 0.0123502705 0.124444105 -0.11227419 -0.03422976
0.07741676 0.07030914 -0.09613056 0.08891574 0.061237883 -0.016848313 0.029230123 -0.08314029
0.026680794 -0.11904055 -0.008266661 0.110936634 0.021373315 -0.08730471 0.13962832 0.06364132
-0.07920275 -0.09978034 0.08744061 0.091319256 -0.057802368 -0.07729618 -0.014060388 0.09204685
-0.10613652 0.14273715 -0.10732292 -0.11737315 0.0009098653 0.059977055 -0.011299694 -0.022987165
-0.10315773 -0.07369737 0.12317724 0.023825113 0.0010433095 -0.09103738 -0.06646978 -0.08881888
-0.07239902 0.029146494 0.055889677 0.095107034 0.014559313 0.033650305 0.09771205 0.14007115
0.03500518 0.052312944 -0.044204157 0.12497213 0.032797873 0.140067 -0.092458524 -0.117896125
0.02933886 0.1025979 -0.12326897 -0.092992835 -0.094012834 -0.0070894677 0.074902594 -0.096715055
-0.02902785 0.10940664 -0.09075763 0.01090424 0.083339244 0.009634076 0.09476037 0.0043795123
0.0981128 -0.016573215 0.061527316 0.11796995 0.025402125 0.09149141 0.11918119 0.049442176
00000000: 9b18 603d 4da0 d93d 4591 81bd 9c87 04be
00000010: 6455 6bbd f44d c33d 7876 593d ce79 1ebd
00000020: c37f e4bd 5498 3bbd 2ddf f03d dae6 cbba
00000030: 2a46 b03d c898 343c ff87 ed3d 8ab1 ee3d
00000040: e984 88bc 2e0a 55bd 48db d7bd 260f 04bd
00000050: 359c 94bd f4d7 0f3d 851f 7ebc acbf 163e
00000060: 2cd1 f53d 8910 a03d fd5b 303d 7234 1fbd
00000070: bab5 dfbd df55 a63d 7df6 893d 0d24 1cbb
00000080: 819d 7bbc 5bca 05be 3213 ad3c 56db 573d
00000090: b9ba 6fbc 74dc ae3d 63fa 28bd 6002 08be
000000a0: 73d8 be3d 91f3 0d3e eefa ab3d fe27 87bd
000000b0: 9b26 963d 3e9c 013e 623d 91bd cf85 6dbd
000000c0: 1c84 643d 7730 17bd 177b 20bc b77d 91bc
000000d0: 2c39 373d ff90 c6bc f33c 18be ad3e ec3d
000000e0: cca2 033e 6a63 c3bc 9174 19bd 560b ff3d
000000f0: fe57 d0bd d2c4 ad3d 4bfc a63d 6d37 1a3d
00000100: 7c1e 903d 824b 113b a63e 8e3d 5914 063e
00000110: 972b ffbd 81d0 de3d 829d 89bd 9c44 a1ba
00000120: 0e42 e03d 5044 d5bc 1f80 d43d b0d4 903d
00000130: 039d eb3d e152 463d 4f56 40bc 3c09 01bc
00000140: 33dd 993d eb6b 94bc 9350 a53d 1172 d6bc
00000150: 4471 8e3d 8842 223d 1801 32bd 03ab dabd
00000160: 2ca2 8c3b 5470 15be 98ca d23d cc62 0ebe
00000170: 27b1 debd caa3 2c3d 4ee3 5a3d 7f1a b03d
00000180: c9ef 243d 5943 e13b 6cb3 0f3c ecd2 b63d
00000190: 7433 883d 8441 a8bd 3bf0 c0bd 30f2 02be
000001a0: ac61 f43d d59c 5bbd cf43 2bbd 1828 553d
000001b0: d93b b73c 6a00 8d3d fd94 c9bd d5e8 b2bd
000001c0: 017a a23d 0e63 003e bb13 9a3d eba4 afbd
000001d0: 50ec ca3d 5df2 4c3d 7dfe ca3d c2b9 b83d
000001e0: 09cc ab3d d419 c93d 5f9f a53d c7bb 96bd
000001f0: 1e85 d1bd 2517 613d 6abd c1bd b83b 2d3d
00000200: 7a8b e7bd 87eb 693d 4a7b 0b3e fadc 4dbd
00000210: 1382 ec3d a9a9 093e 75d0 0fbe fd81 393d
00000220: e2be cb3d 8371 cc3d 7b11 343c 7cb3 563d
00000230: b3ff 56bb cfac afbd 9950 3e3d 885c 7fbd
00000240: ce8d b43d 65e5 acbd e075 a7bd e2f7 2f3d
00000250: 701a ac3c 183a 013d ae64 50bd 3e7e ecbc
00000260: d7ca 173e 2564 a83c c2f1 b93b 8e19 4cbc
00000270: 20ba f5bc c559 dc3d 3433 e2bd 60dc 03be
00000280: 7f5c fd3c 0ab0 11be f944 73bd 7c04 0dbe
00000290: 51b4 67bd fdb2 013e 17bf 03bd 325b d43c
000002a0: dc7d 04bd bbd5 733c dcac cabd 226c 8abd
000002b0: ca58 4a3c 8ddc fe3d 03f0 e5bd 8134 0cbd
000002c0: ae8c 9e3d 3dfe 8f3d 19e0 c4bd 7519 b63d
000002d0: 93d4 7a3d 7905 8abc 0374 ef3c 7545 aabd
000002e0: ae91 da3c 88cb f3bd e470 07bc bf32 e33d
000002f0: 1717 af3c d0cc b2bd bafa 0e3e 6156 823d
00000300: 0d35 a2bd a359 ccbd 1014 b33d 9705 bb3d
00000310: 2dc2 6cbd 764d 9ebd 8b5d 66bc 0f83 bc3d
00000320: 1b5e d9bd b029 123e 1ecc dbbd 5661 f0bd
00000330: 0784 6e3a 80aa 753d 5a22 39bc 944f bcbc
00000340: 5c44 d3bd a6ee 96bd 5944 fc3d e22c c33c
00000350: a8bf 883a ce71 babd 4f21 88bd ace6 b5bd
00000360: f045 94bd a1c4 ee3c 93ec 643d 7ac7 c23d
00000370: 2f8a 6e3c e7d4 093d 411d c83d d06e 0f3e
00000380: 9761 0f3d 1946 563d 6b0f 35bd 63f1 ff3d
00000390: 1057 063d b96d 0f3e e55a bdbd 8673 f1bd
000003a0: 0d58 f03c d91e d23d 7174 fcbd 0773 bebd
000003b0: cd89 c0bd c44e e8bb 8866 993d 8b12 c6bd
000003c0: d0cb edbc 9710 e03d 23df b9bd b3a7 323c
000003d0: c4ad aa3d 3ed8 1d3c ba11 c23d 0382 8f3b
000003e0: 5def c83d 8dc4 87bc 1104 7c3d 3b9a f13d
000003f0: 1e18 d03c d95f bb3d 4515 f43d e183 4a3d

gat_layers.1.att_src f4 [1, 4, 64]
-0.0060680043 -0.095355414 -0.010732833 -0.28952736 -0.2648049 -0.26200783 0.119936705 -0.18664357
0.21123746 -0.21007073 0.14914404 0.010687466 -0.13295348 0.15769786 0.029840212 0.19359456
-0.091037825 -0.13706934 0.20599878 0.09711204 0.24956283 0.1100488 -0.0233555 0.19634531
-0.3131952 -0.09612232 -0.09503924 0.07750493 -0.059124853 -0.0563245 0.072293 -0.009375728
-0.26301432 -0.01628643 -0.24732336 -0.18447377 0.14927015 0.06547655 -0.2000044 0.23139769
-0.23935628 -0.17752948 -0.22449228 0.24386819 -0.10447454 0.053920142 -0.02002536 -0.12785926
0.16895987 -0.20012489 0.29512742 0.17046343 0.21632124 -0.07500624 0.1335564 -0.035845388
0.056050003 -0.18623313 -0.20232694 -0.24591029 0.026573073 0.025977569 0.18004978 0.07759948
0.10653224 0.066034034 0.12881151 0.26973137 -0.17865553 0.024132801 -0.26617864 0.054421306
-0.19239005 0.10752242 -0.20308591 -0.290188 -0.2875038 0.28463075 -0.10908968 -0.11273074
-0.23373969 0.034270924 -0.09730057 -0.14389333 0.031152645 -0.08870824 -0.2809365 0.16086347
0.19618197 0.28850824 -0.13691437 -0.23584725 -0.25156057 -0.13525519 -0.17214185 0.15633214
-0.06685869 -0.052000083 -0.27279973 -0.023905225 0.2394136 0.010390817 -0.09167821 -0.14384098
0.1613487 0.20419595 0.07128269 0.28295633 0.028047843 -0.14383735 0.14619137 -0.10244969
0.25355724 -0.019215696 -0.08812549 0.27160603 -0.12357947 0.16247608 0.071902044 0.14792661
0.27569056 0.20891912 0.2048543 -0.16225934 -0.09119677 0.00711247 0.016672391 0.17995346
-0.032889772 -0.1507802 0.09024316 0.29565647 -0.09613859 -0.29802677 -0.06277295 0.23066089
-0.22005904 0.28464 -0.085572936 0.00021024486 0.043905865 0.22703226 -0.16979763 -0.058777474
0.036425903 0.25600168 0.23805498 0.22601804 -0.14784992 -0.2869043 0.12651967 0.27836195
0.1828414 -0.16394967 0.06338261 -0.16724676 0.14994095 -0.19965883 -0.19686396 -0.057820175
-0.28766155 -0.29123908 0.07579229 0.0626072 -0.10495871 -0.19458866 -0.09837786 -0.0646563
-0.20021053 0.13593155 -0.07313972 -0.26927125 0.20402107 0.22985592 0.14668508 0.047725324
0.19202241 0.14741237 0.2718683 -0.021284146 -0.25713366 -0.11496743 0.107946046 -0.10894081
-0.28856418 0.20259176 0.099441156 0.16630074 0.28425804 0.13583894 0.15251239 0.09055025
0.009333683 -0.002207566 -0.15684396 -0.24524294 -0.016411807 0.017099578 -0.060400564 0.11264894
0.18960616 -0.15253522 0.055972904 -0.1336501 0.13402872 -0.04215813 -0.305962 0.03937001
-0.051282126 0.08341602 0.16622652 0.29140678 -0.27133328 -0.2643008 -0.14378496 -0.24390164
0.08316621 -0.2219534 -0.103864975 -0.17192753 0.19094816 -0.09376356 -0.01437941 0.19345531
-0.14499287 0.18752688 0.18861187 0.112035416 -0.2673075 0.092668116 0.22865635 -0.28272662
0.122390084 -0.06682948 -0.18154551 -0.06305109 -0.18261848 0.31780034 -0.087359615 0.008886706
0.27421033 -0.30813044 -0.104134016 0.25656986 -0.10256494 -0.14478482 -0.2482289 -0.08311048
-0.058797605 -0.006358631 0.07797879 0.23363693 -0.011126579 -0.24991237 -0.022278614 -0.046236314
00000000: 1cd6 c6bb b349 c3bd c4d8 2fbc ee3c 94be
00000010: 8294 87be e425 86be 60a1 f53d 7e1f 3fbe
00000020: a24e 583e c81c 57be 37b9 183e 7b1a 2f3c
00000030: f524 08be 8c7b 213e 7673 f43c a73d 463e
00000040: 0a72 babd e85b 0cbe 58f1 523e ade2 c63d
00000050: 668d 7f3e 4461 e13d 0954 bfbc bf0e 493e
00000060: 1f5b a0be c7db c4bd efa3 c2bd e8ba 9e3d
00000070: e72c 72bd 85b4 66bd 5a0e 943d a79c 19bc
00000080: d0a9 86be 1f6b 85bc 5642 7dbe b1e6 3cbe
00000090: 46da 183e 9218 863d f4cd 4cbe 84f3 6c3e
000000a0: d019 75be 4aca 35be 4ee1 65be 95b8 793e
000000b0: bff6 d5bd 5edb 5c3d 390c a4bc 8aed 02be
000000c0: d103 2d3e 8aed 4cbe f11a 973e f78d 2e3e
000000d0: 5183 5d3e df9c 99bd 02c3 083e 9dd2 12bd
000000e0: b094 653d e6b3 3ebe cb2e 4fbe e8cf 7bbe
000000f0: c6af d93c e9ce d43c f85e 383e 7aec 9e3d
00000100: 932d da3d da3c 873d 2ae7 033e 3b1a 8a3e
00000110: 7af1 36be 27b2 c53c 9148 88be e0e8 5e3d
00000120: e601 45be b734 dc3d c1f5 4fbe 8693 94be
00000130: b333 93be 1fbb 913e 696a dfbd 60df e6bd
00000140: 7559 6fbe ab5f 0c3d 8545 c7bd c658 13be
00000150: d533 ff3c aaac b5bd e9d6 8fbe 65b9 243e
00000160: ede3 483e 5ab7 933e 4833 0cbe f181 71be
00000170: 8ccc 80be 5680 0abe f445 30be 8815 203e
00000180: 35ed 88bd 0afe 54bd 68ac 8bbe e4d4 c3bc
00000190: d728 753e 3f3e 2a3c c9c1 bbbd 0d4b 13be
000001a0: 9838 253e be18 513e a9fc 913d a7df 903e
000001b0: 97c4 e53c 194a 13be 31b3 153e 25d1 d1bd
000001c0: 41d2 813e 3c6a 9dbc 237b b4bd f20f 8b3e
000001d0: 3c17 fdbd 2160 263e 6141 933d 137a 173e
000001e0: 5027 8d3e e5ee 553e 53c5 513e 5027 26be
000001f0: 5fc5 babd b90f e93b 8a94 883c b845 383e
00000200: 6db7 06bd 2066 1abe 68d1 b83d 4960 973e
00000210: 4fe4 c4bd f796 98be 1b8f 80bd 5e32 6c3e
00000220: 2857 61be 56bc 913e dd40 afbd 2d75 5c39
00000230: a3d6 333d 257b 683e 6edf 2dbe a6c0 70bd
00000240: 5433 153d a712 833e afc4 733e 4671 673e
00000250: f865 17be 1fe5 92be 5f8e 013e 7585 8e3e
00000260: c73a 3b3e 6ce2 27be bece 813d bc42 2bbe
00000270: 1f8a 193e 5d73 4cbe b596 49be d9d4 6cbd
00000280: 6048 93be 4a1d 95be fd38 9b3d 3438 803d
00000290: 98f4 d6bd 4042 47be 557a c9bd 866a 84bd
000002a0: fd03 4dbe a431 0b3e 47ca 95bd ecdd 89be
000002b0: e6ea 503e 5a5f 6b3e 9d34 163e a17b 433d
000002c0: 86a1 443e 45f3 163e 5232 8b3e 175c aebc
000002d0: 06a7 83be 0b74 ebbd d112 dd3d 5c1c dfbd
000002e0: afbe 93be 3774 4f3e cea7 cb3d be4a 2a3e
000002f0: 458a 913e 5d19 0b3e 352c 1c3e 6972 b93d
00000300: 4eec 183c d0ac 10bb b49b 20be f720 7bbe
00000310: 0e72 86bc 6a14 8c3c 9566 77bd 7db4 e63d
00000320: 1e28 423e 3132 1cbe d843 653d 92db 08be
00000330: d33e 093e 01ae 2cbd 0da7 9cbe 7342 213d
00000340: 350d 52bd 05d6 aa3d 4937 2a3e 4533 953e
00000350: 32ec 8abe 6f52 87be 5d3c 13be 5ac1 79be
00000360: 0c53 aa3d c147 63be 29b7 d4bd c50d 30be
00000370: ea87 433e 1c07 c0bd 9e97 6bbc 2619 463e
00000380: 0379 14be 0c07 403e 7823 413e d372 e53d
00000390: 87dc 88be c8c8 bd3d e424 6a3e 8bc1 90be
000003a0: a7a7 fa3d e5dd 88bd 11e7 39be ee20 81bd
000003b0: 5700 3bbe bab6 a23e 99e9 b2bd 8c99 113c
000003c0: 4c65 8c3e 46c3 9dbe 3744 d5bd 205d 833e
000003d0: 910d d2bd 7942 14be b72f 7ebe d435 aabd
000003e0: c2d5 70bd 105c d0bb 58b3 9f3d 853e 6f3e
000003f0: 414c 36bc 07e9 7fbe a481 b6bc 4a62 3dbd

gat_layers.1.att_dst f4 [1, 4, 64]
-0.016022056 -0.22641076 -0.018499142 -0.08610374 0.2637157 0.07879761 0.024937123 0.18843947
-0.24790993 -0.20893534 0.2266796 -0.12575094 0.053567637 -0.173543 -0.04201178 0.2353053
0.082696095 0.08846865 0.09108085 -0.24447645 -0.10525034 0.13689335 0.2733881 0.26147676
-0.13106684 0.09157828 0.16282748 0.12509206 0.17977168 0.057295654 -0.11529006 0.26434556
-0.26017085 0.15806149 -0.15979117 0.094778456 -0.21824376 -0.2415696 0.14851153 -0.05740161
-0.21032104 0.11205039 -0.15060519 -0.056899935 0.21811368 -0.16054569 -0.11743053 -0.07123005
-0.098541185 0.27002248 -0.10489162 -0.2062101 -0.25833923 -0.28736016 0.0992136 0.078963436
0.20461462 -0.1170481 0.16834325 0.2868305 -0.14830482 -0.1068079 -0.15501617 0.13275717
0.267003 -0.15672031 0.26957446 -0.010853417 0.28215146 0.039165724 0.27553836 -0.104995675
-0.1637969 -0.12960072 -0.21684615 0.28929102 -0.124956936 0.108634904 0.26377067 0.10073807
0.060028676 0.11175042 0.03779788 0.04484159 -0.11136045 -0.1344797 0.22725697 -0.0025602258
0.29860467 -0.25719768 -0.17472734 0.14589126 0.11060757 0.22755325 -0.059976876 -0.113807745
-0.24402386 -0.12210595 -0.21005997 -0.028576687 -0.033206787 -0.21328813 0.07576415 -0.24401054
-0.189581 -0.21253437 0.2742368 -0.03132503 0.13157904 -0.25500187 -0.07994214 -0.16123448
-0.22638576 -0.3086816 0.2641084 -0.14787987 -0.26560473 -0.039956287 0.019869303 0.12269186
-0.22069857 -0.18889906 0.06283004 0.0016475532 -0.27115774 0.21846451 -0.18514675 -0.0043947315
0.19491643 0.18360575 -0.27946633 0.25953236 -0.19806781 0.2542859 -0.026162928 -0.109449364
0.050145224 0.051068563 -0.06022227 -0.23123749 0.2782768 -0.19076829 0.20222141 0.09283057
-0.13087909 -0.0049425513 0.13468504 -0.026891302 0.05648629 0.23778942 0.014737811 -0.17000699
0.23067869 0.16132395 0.056597866 -0.11747667 -0.29948515 -0.002081483 -0.06026277 -0.28795487
0.2487447 -0.019718349 -0.21948755 0.2348331 0.12805441 -0.1996004 -0.106667794 -0.16536117
0.14283162 0.25442958 0.13565738 -0.2503281 0.2848023 -0.11726409 0.25322247 0.09559188
-0.21478301 -0.037001163 0.2492128 0.11169424 -0.24759471 -0.15396386 0.09514963 0.11529084
-0.17099896 0.070638284 -0.29339805 0.1979265 -0.13120979 0.049418274 -0.048288357 0.13097318
0.10061543 -0.27982044 0.08388986 0.2803438 0.19631308 0.1650904 0.14928705 -0.2237625
-0.2528744 0.06329733 -0.111817315 0.10765533 -0.17624916 0.037647337 -0.22694658 -0.2697608
-0.19928041 0.20717321 0.06673064 0.026671197 -0.16101462 0.034675125 -0.078659594 -0.026848564
-0.07305515 -0.15421021 -0.06842588 0.21719708 0.1340454 0.10910662 -0.008246818 -0.28275114
0.004007771 0.2049117 0.15389627 0.21686594 0.116021596 0.067106664 0.20770782 0.17715661
-0.20633449 0.07440051 0.17732956 -0.017334558 -0.16033977 -0.15007421 -0.2774332 0.063199356
0.13980344 0.167349 -0.09187038 -0.2354409 0.010213674 0.105942145 0.05163935 0.23948607
-0.105022766 -0.14617516 0.3129959 0.050755825 0.19976175 -0.14951685 0.14778043 -0.11751285
00000000: b040 83bc 39d8 67be 838b 97bc 2857 b0bd
00000010: bf05 873e a460 a13d f048 cc3c 47f6 403e
00000020: 1adc 7dbe 25f3 55be b21e 683e dbc4 00be
00000030: bd69 5b3d 42b5 31be 8b14 2cbd dff3 703e
00000040: 925c a93d 0d2f b53d 9988 ba3d 0958 7abe
00000050: 7e8d d7bd c52d 0c3e 86f9 8b3e 48e0 853e
00000060: 6336 06be 658d bb3d 3fbc 263e 2218 003e
00000070: 1116 383e d9ae 6a3d 321d ecbd 4d58 873e
00000080: 1d35 85be dfda 213e 4ca0 23be 351b c23d
00000090: 4b7b 5fbe 055e 77be 6813 183e f31d 6bbd
000000a0: 665e 57be ad7a e53d 3f38 1abe e80f 69bd
000000b0: 3159 5f3e 1766 24be 6b7f f0bd 0fe1 91bd
000000c0: f6cf c9bd 6340 8a3e 6bd1 d6bd be28 53be
000000d0: 0a45 84be df20 93be 8030 cb3d 95b7 a13d
000000e0: 7f86 513e eab6 efbd 2c62 2c3e 73db 923e
000000f0: 38dd 17be 1abe dabd 8fbc 1ebe 7ff1 073e
00000100: 9eb4 883e 4a7b 20be aa05 8a3e 88d2 31bc
00000110: 2876 903e 3d6c 203d 5d13 8d3e f907 d7bd
00000120: 60ba 27be 0db6 04be eb0c 5ebe f41d 943e
00000130: 6ce9 ffbd fa7b de3d f30c 873e c34f ce3d
00000140: a1e0 753d 67dd e43d f3d1 1a3d d1ab 373d
00000150: f310 e4bd 0cb5 09be 0db6 683e 76c9 27bb
00000160: b6e2 983e 6aaf 83be b9eb 32be 8564 153e
00000170: 3986 e23d b803 693e 50aa 75bd 0914 e9bd
00000180: 64e1 79be af12 fabd f619 57be a819 eabc
00000190: d703 08bd 3468 5abe 3c2a 9b3d e6dd 79be
000001a0: 8621 42be 9ca2 59be c468 8c3e ad4e 00bd
000001b0: a8bc 063e 9b8f 82be b4b8 a3bd a71a 25be
000001c0: abd1 67be 840b 9ebe 3739 873e d26d 17be
000001d0: 58fd 87be 34a9 23bd f3c4 a23c df45 fb3d
000001e0: cefe 61be c16e 41be 09ad 803d b6f2 d73a
000001f0: 30d5 8abe 29b5 5f3e 1c97 3dbe ae01 90bb
00000200: 2c98 473e 2503 3c3e 3616 8fbe 6de1 843e
00000210: 4ad2 4abe c331 823e a353 d6bc fd26 e0bd
00000220: 1465 4d3d 452d 513d a1ab 76bd 85c9 6cbe
00000230: 4c7a 8e3e c358 43be 2113 4f3e f41d be3d
00000240: 2b05 06be 20f5 a1bb e0ea 093e 264b dcbc
00000250: 2b5e 673d 127f 733e dc76 713c 5016 2ebe
00000260: 0937 6c3e 1b32 253e 2ad3 673d 9c97 f0bd
00000270: 1e56 99be 7d69 08bb 18d6 76bd d26e 93be
00000280: eeb6 7e3e 6088 a1bc 58c1 60be 1778 703e
00000290: b220 033e 0c64 4cbe a574 dabd 7054 29be
000002a0: 7442 123e 9844 823e c5e9 0a3e 012b 80be
000002b0: 9bd1 913e 2828 f0bd 60a6 813e adc5 c33d
000002c0: 14f0 5bbe 888e 17bd a431 7f3e f3bf e43d
000002d0: 7889 7dbe b4a8 1dbe cfdd c23d 9b1d ec3d
000002e0: 5a1a 2fbe ceaa 903d 4538 96be 3fad 4a3e
000002f0: dc5b 06be d16a 4a3d 03ca 45bd d51d 063e
00000300: 760f ce3d a044 8fbe 72ce ab3d 3989 8f3e
00000310: 4c06 493e 750d 293e b4de 183e ff21 65be
00000320: c178 81be 08a2 813d 7a00 e5bd 667a dc3d
00000330: a97a 34be 1834 1a3d af64 68be 161e 8abe
00000340: 2a10 4cbe 3725 543e 13aa 883d 8e7d da3c
00000350: 04e1 24be 8107 0e3d 4818 a1bd 85f1 dbbc
00000360: f09d 95bd 48e9 1dbe de22 8cbd e968 5e3e
00000370: 3343 093e 4b73 df3d a91d 07bc c2c4 90be
00000380: 9f53 833b 5fd4 513e fc96 1d3e 1b12 5e3e
00000390: bb9c ed3d 386f 893d 5cb1 543e 8b68 353e
000003a0: 5949 53be 4b5f 983d e195 353e 3401 8ebc
000003b0: 1c30 24be 0ead 19be b90b 8ebe aa6e 813d
000003c0: a228 0f3e 895d 2b3e 8a26 bcbd 6b17 71be
000003d0: 4157 273c 32f8 d83d c883 533d d63b 753e
000003e0: 2d16 d7bd f1ae 15be 0041 a03e 57e5 4f3d
000003f0: 588e 4c3e f21a 19be c153 173e 94aa f0bd
